model.tflite (tflite, 448900 bytes, 12 tensors)

arith.constant f4 [64]
000000 d4 5b a3 bf 54 a6 8a be 36 2d 3d bf 30 94 1f 3f
       -1.2762399 -0.27080023 -0.7389711 0.6233549
000010 fb 63 64 3f f5 7e 1c 3e bc d5 00 3e 1d 44 58 3e
       0.8921506 0.15282805 0.12581533 0.21119733
000020 5c 8e 6a 3e 33 76 9b bf 71 cf 38 3f 50 dc e0 bd
       0.22905868 -1.2145447 0.7219153 -0.10979521
000030 5f 51 9f be 09 a2 8a bf 12 6c f4 be 7b 5b 9a ba
       -0.3111677 -1.0830699 -0.477387 -0.0011776531
000040 0d ca 2a 3f 4d db 32 3d 9a f9 05 3f ac 5c 11 3f
       0.66714555 0.043666173 0.52333987 0.5678203
000050 8a f1 88 be 66 c6 9b bf 0c 92 b4 3e 64 2f 1d 3f
       -0.2674678 -1.2169921 0.35267675 0.6140044
000060 0f 4a f6 3e 7e 5c 9a 3e 83 48 19 3f 54 40 e4 bc
       0.48103377 0.3014869 0.5987627 -0.027862705
000070 8c 8f ab 3e f9 7a 0e bf c4 96 47 bd b3 66 39 3e
       0.33507955 -0.5565639 -0.048727766 0.18105583
000080 32 78 02 3f ae d8 ab bd 1b 5a 7d 3e 23 11 b6 3e
       0.50964653 -0.08390938 0.24741404 0.3555995
000090 a8 99 35 be 2c 84 48 3e c7 98 ea be ec 13 d8 bd
       -0.17734396 0.1958167 -0.45819685 -0.10550675
0000a0 5f 56 02 3f 51 93 03 3f b1 f4 81 3f b9 cc b9 bd
       0.5091304 0.5139666 1.0152799 -0.09072251
0000b0 b5 7e 8f 3e 0b bf 9c be 39 ae ea 3e 96 ae 81 3f
       0.28026357 -0.30614504 0.45836046 1.0131404
0000c0 79 c9 01 3f cf f8 62 be 94 05 3b be 11 3a 1f bd
       0.5069805 -0.22165225 -0.18263847 -0.038873736
0000d0 7e 8c 90 3e 5d a1 5c 3e ed 33 f2 be 95 90 1a 3f
       0.28232187 0.2154593 -0.4730524 0.60376865
0000e0 d4 92 98 3e 87 d2 f5 3e 16 23 c9 be ff 0f 96 3f
       0.2979952 0.48012182 -0.3928458 1.1723632
0000f0 3d c4 98 3e 44 eb b8 3e 2e b7 8b 3e 85 b8 9c bc
       0.29837218 0.36116993 0.27288193 -0.019130955

arith.constant1 f4 [64]
000000 78 31 58 3e d8 75 55 3f cb 65 dc 3e 4b d1 e1 3e
       0.21112621 0.8338294 0.43046412 0.4410499
000010 15 f5 0d 3f 7c 2d 8d 3e 1d e8 36 3e ee 32 c2 3f
       0.5545209 0.27573764 0.17861982 1.5171793
000020 2e 81 42 3f a9 35 b1 bf 97 49 91 3f b1 9a d8 3e
       0.7597836 -1.3844501 1.1350583 0.4230552
000030 7c 30 d4 3f 61 d1 8b be c4 dc 75 3e a2 19 9c bd
       1.6577296 -0.2730818 0.24009997 -0.076220766
000040 e4 75 81 3e 1a 36 4a 3f 1d 82 4e 3f 43 55 38 bf
       0.25285256 0.789888 0.8066729 -0.720051
000050 72 4e 27 be 7e fd 89 3f 5b f7 74 3f 76 30 01 bf
       -0.16338518 1.0780485 0.95689934 -0.5046457
000060 71 e0 3e be 88 be a6 3d 91 ad ce bf d4 21 35 bf
       -0.18640305 0.0814181 -1.6146718 -0.7075474
000070 55 ad 9c 3e cb 52 e0 3e 85 f1 33 3f 3e a3 52 3e
       0.30600992 0.43813166 0.70290405 0.20570084
000080 3b 84 85 3f 31 e5 54 3f 15 7b 92 be b2 18 d6 3e
       1.0430979 0.8316222 -0.2860953 0.41815716
000090 32 f9 8e 3e c7 2c 9e 3e 90 27 b3 3e f4 ac 52 3f
       0.27924496 0.30893537 0.3499112 0.82295156
0000a0 04 91 92 bf cf e2 27 3e 6f 86 13 bf c5 6c f1 3d
       -1.1450505 0.16395114 -0.57627004 0.11788324
0000b0 4d 2c a1 bc d1 5c a7 3b ca 9c cd be f8 d0 d2 bd
       -0.019674445 0.0051075 -0.40158683 -0.10293764
0000c0 24 3b ad 3e cf 00 4e 3e c0 a9 d5 3d c0 29 11 bf
       0.33834183 0.20117496 0.10432768 -0.5670433
0000d0 3d 39 8f be b4 e1 69 3e a8 06 db 3e a9 b4 84 3f
       -0.27973357 0.22840005 0.42778516 1.0367633
0000e0 ae 12 bc 3f 31 71 22 3f 22 c9 3e 3f ce 6a c6 3e
       1.46932 0.63453966 0.74525654 0.3875336
0000f0 ac ab 79 3e 01 b8 bc bc 4b 82 2c 3f 86 6f af 3f
       0.24381894 -0.023036959 0.6738631 1.3705909

arith.constant2 f4 [32]
000000 ad 2a f0 bb be 0b c5 bf 14 58 52 be f3 40 a9 3c
       -0.007329306 -1.5394208 -0.20541412 0.020660853
000010 8d 3c 8b be 4f 0d fd 3d 48 02 62 be ba fe 80 3f
       -0.27194634 0.12356054 -0.22071183 1.0077736
000020 49 ed 41 3e 4f 56 33 3f 7d 9f dc be d6 a6 63 be
       0.18938173 0.7005357 -0.4309043 -0.22231612
000030 4f e8 31 3d 55 74 3e 3e 1a f6 bc 3f 8b ac 29 bf
       0.043434437 0.18599065 1.4762604 -0.66278905
000040 bc b8 b9 3e 07 80 2c bf d5 7d ae 3e 78 52 32 3f
       0.36273754 -0.67382854 0.34080377 0.6965709
000050 10 c5 95 bf 89 bb 6c bd 8c 3c f1 bc b8 e9 be 3d
       -1.1700764 -0.057796035 -0.029447816 0.09321922
000060 c8 1b 36 3f 69 ad 80 3e 17 9f d8 3e 42 be 86 be
       0.7113614 0.251323 0.42308876 -0.2631703
000070 7c cb 93 be 46 9b 54 be ea 0d 39 3f d4 57 a9 be
       -0.28866184 -0.20762357 0.72286856 -0.3307482

arith.constant3 f4 [64, 3, 3, 64]
000000 40 4d 8f 3c f3 56 16 3c 03 3c 59 3e ed 38 e4 bd
       0.01749289 0.009176004 0.21214299 -0.1114367
000010 c0 d5 33 3e fc 99 dd 3c 2d cd 25 3d a8 02 e2 bc
       0.17562008 0.027050965 0.040478874 -0.027589157
000020 6c 66 d5 3c 27 95 ec bd 51 73 5c be aa cc e3 bd
       0.026049815 -0.11551886 -0.21528365 -0.11123021
000030 44 fc 83 bd e5 5b de 3c 99 c3 8d bd be 35 d1 bd
       -0.064446 0.027143428 -0.06922073 -0.10215329
000040 e6 28 10 3d 11 e2 67 3d ea 99 02 bd ed 58 8b 3b
       0.035195254 0.056612078 -0.031885065 0.004252544
000050 62 9f 6c 3d 74 a5 c3 bc 7c 4d f6 bc 2a 3f 23 3e
       0.057769187 -0.023882605 -0.030066244 0.15942064
000060 fd 2f 19 be e2 3b 61 bc 79 b1 1d 3e 8a 7e dc bc
       -0.14959712 -0.013747187 0.15399732 -0.026915807
000070 e7 c8 11 3d 7e fd b3 bc 0a 5d 20 be ce e1 28 be
       0.035591986 -0.02197146 -0.15660492 -0.16492388
000080 08 85 a3 3d 10 d5 17 bd 98 92 11 3e 00 dc 6c 3c
       0.07984358 -0.037068427 0.14216077 0.014456749
000090 74 5a 79 bc d2 4b 87 bd 11 52 c0 bd 81 80 9d 3d
       -0.01521932 -0.066062585 -0.09390653 0.07690526
0000a0 cf f3 9a bd 55 cf d1 3d 2f ff 31 bc 84 be 63 bd
       -0.07566034 0.102446236 -0.010864063 -0.05560161
0000b0 41 d2 b4 ba 5a 29 55 3d 37 c9 14 bd 1c d0 66 3e
       -0.0013795571 0.05204139 -0.036324706 0.22540325
0000c0 43 fd 3d bd 4c 58 b8 bd cb e4 01 be 22 09 12 bd
       -0.046384107 -0.09001216 -0.12684934 -0.03565324
0000d0 e1 41 54 3d b3 9f b0 3d 12 69 38 bd db 9f 78 be
       0.05182064 0.0862421 -0.045022078 -0.2427973
0000e0 e3 84 c7 bd 9c 34 8b bd 61 1a f7 bd 52 ae 08 3e
       -0.09742143 -0.06797144 -0.12065578 0.13347748
0000f0 1b 5b 2e be 8c bb 2a 3d 8a 11 b7 bc be eb c6 bc
       -0.17026941 0.041682765 -0.02234723 -0.024282333
000100 60 92 06 bd 08 bc 40 3e 79 a1 93 3d 4a b8 f5 3d
       -0.032854438 0.18821728 0.07208533 0.11998041
000110 2d 97 9a 3c 64 53 d6 bc fc 21 65 be aa b1 40 be
       0.018870914 -0.02616281 -0.22376245 -0.18817773
000120 90 77 68 3d 39 b1 34 3e f3 64 86 bb fc 2f 13 3d
       0.05675465 0.1764573 -0.0041013896 0.035934433
000130 85 dc 3f 3e 4b 2c e1 bd fe 74 7d be 23 0a 2e 3b
       0.18736465 -0.10994776 -0.2475166 0.0026556335
000140 94 01 d8 bc 62 73 77 be aa 24 b3 bd ac f4 8b be
       -0.02636794 -0.24165109 -0.087472275 -0.27335107
000150 b8 cd 24 be 11 f5 93 3d 20 20 46 bd 40 7d a0 bd
       -0.160941 0.07224477 -0.04837048 -0.078363895
000160 b9 07 9b bd 07 b7 a0 3c fc a6 1c bd 18 1e 49 be
       -0.07569832 0.019618524 -0.038245186 -0.19640386
000170 73 a6 f3 3c 5f ff 87 be 43 e9 42 be 2f eb 4d be
       0.029742455 -0.2656202 -0.19034295 -0.20109247
000180 b3 b2 39 3d ad 9c 41 3c 7a 73 d0 3c 54 e1 7f bb
       0.045336436 0.01181714 0.025445689 -0.0039044218
000190 ea 99 03 bd d9 73 25 bc 1c f1 82 be c1 9a c3 3d
       -0.032129206 -0.010098421 -0.25574577 0.09551001
0001a0 07 9e 96 3d e0 64 62 be 0b f8 b8 3c a5 f2 ad 3d
       0.0735436 -0.22108793 0.022579214 0.084935464
0001b0 91 13 90 3d 69 98 8c 3c 65 94 c9 bc c0 43 44 3b
       0.07034982 0.017162519 -0.024606893 0.0029947609
0001c0 84 34 8b bd 7b 7a 76 be 60 d5 2f bd 93 53 56 3e
       -0.06797126 -0.2407016 -0.0429281 0.20930319
0001d0 b4 d6 73 be 10 1d ac 3c a0 a5 bd 3c 1c bf df 37
       -0.23812371 0.021009952 0.023150265 2.6672664e-05
0001e0 04 24 82 be 15 3a 13 3e aa 8e 9b bd eb da c8 3d
       -0.25418103 0.14377625 -0.075955704 0.0980738
0001f0 b9 0c 36 3d 48 ee c2 bb 76 05 58 be e6 68 89 3d
       0.044445727 -0.0059488155 -0.21095833 0.06709461
000200 b8 f9 02 bc e4 5a 85 bc 47 d9 47 3e a1 ab 88 3d
       -0.007994108 -0.016278692 0.19516478 0.066733606
000210 59 5a 00 be f2 bf e9 3c 8e ef 43 be 45 61 be be
       -0.12534465 0.02853391 -0.19134352 -0.37183586
000220 5d fa 94 be 39 99 91 bd ef d9 f9 bd dc b9 41 3b
       -0.29097262 -0.07109303 -0.12199771 0.0029560244
000230 18 87 5e be e6 39 90 bd 17 78 57 bd 76 1f 0d be
       -0.21731222 -0.07042293 -0.05260476 -0.13781533
000240 cc 0b 4b 3e b5 4c d1 bd d6 04 a9 be e4 75 40 bd
       0.19828719 -0.10219709 -0.33011502 -0.04698743
000250 80 4f 9a bd 0f f1 24 be 53 e8 3e 3d ab bb 20 be
       -0.07534695 -0.16107582 0.04660828 -0.1569659
000260 ed e8 73 be 08 95 9d 3d 02 75 08 bd f0 01 2d be
       -0.23819323 0.07694441 -0.033314712 -0.1689527
000270 84 d5 af bd cc 6e 91 bd 11 99 55 3e 0b 08 20 bc
       -0.08585647 -0.07101211 0.20859171 -0.009767543
000280 e8 ad 82 bd db 5c 61 be 94 7c 67 be da 92 8b bd
       -0.06380826 -0.22008078 -0.22606117 -0.06815119
000290 a6 c7 2a be 21 3d 52 bd c6 75 02 bd fc 0f 54 3d
       -0.16677722 -0.05132783 -0.0318506 0.051773056
0002a0 20 0b 17 3c 09 db 0b bc 54 67 ce bd 6b 7c cf bb
       0.009218961 -0.008536109 -0.10078302 -0.0063319704
0002b0 cc 61 38 3e 3a d9 17 3c 99 f6 93 3d 6c 0b 80 be
       0.18006057 0.009268099 0.07224769 -0.25008714
0002c0 dc 8b 7c bd 0c 65 17 3d b0 f1 0f 3d 8a a5 dd 3d
       -0.061656818 0.0369616 0.0351426 0.1082259
0002d0 6d 43 69 bd de 55 8d 3d 63 30 8d bd a3 33 66 3c
       -0.056949068 0.069011435 -0.06893995 0.014050397
0002e0 90 f0 7b be bd 0e fb bd 9a 6d 0d be 6c f3 17 3d
       -0.24603486 -0.122586705 -0.13811341 0.03709738
0002f0 a0 11 20 3e 72 44 8f be 1a fa 1c be 17 c0 fb bd
       0.15631723 -0.27981907 -0.15329781 -0.122924976
000300 e2 08 3b be 9e bc 58 be 55 36 13 bd f4 9e 34 be
       -0.18265107 -0.21165702 -0.035940487 -0.17638761
000310 28 6e bc 3c b7 c3 b9 3c d7 f3 ac bd 3c 59 36 bd
       0.023001745 0.022676332 -0.08444946 -0.044518694
000320 f0 8c a7 be e5 0b 35 3e e6 ba db 3d 90 b5 0a 3c
       -0.32724714 0.17680319 0.107290074 0.008466139
000330 d5 89 9a 3e c3 05 21 bc 85 78 15 be 41 9f 22 be
       0.30183282 -0.009828034 -0.14596756 -0.15881063
000340 84 b0 50 bd 3d 2e 04 3e 25 c0 15 be d9 07 87 3d
       -0.05094959 0.12908264 -0.14624079 0.06593294
000350 56 8c 99 3d bd 4e 79 bd 14 5f 9e 3e df 2f 4c 3e
       0.0749747 -0.060866106 0.30931914 0.19940136
000360 32 e9 0a bd 1a 30 bc 3c c2 8b 01 be f3 86 36 3e
       -0.0339138 0.022972155 -0.1265097 0.17824917
000370 31 83 da 3a 23 1d 87 bd f0 d4 ea bd 80 ac 90 bd
       0.0016671178 -0.06597354 -0.11466396 -0.07064152
000380 e0 bc 0c be 1e f5 fc bd ce 69 e6 3d e2 d4 a2 bd
       -0.13743925 -0.1235144 0.112506494 -0.079507604
000390 c2 c0 94 bc 1e 43 34 bd c4 22 a5 ba b5 17 24 bd
       -0.01815832 -0.04400932 -0.0012598862 -0.04006167
0003a0 cd 51 7e 3d 09 36 b7 bd d3 3d 43 bd a7 4a 0e be
       0.06208973 -0.08945853 -0.047666382 -0.13895665
0003b0 8d 7d 1a 3e b1 57 72 bd bf 17 90 3c 4f 7a da 3d
       0.15086956 -0.05916566 0.017589448 0.1066786
0003c0 ee cb c6 bd fb 18 20 be 8b 18 8d 3d a4 96 18 bd
       -0.09706865 -0.1563453 0.06889447 -0.037253037
0003d0 1e a5 01 be 7b 3d 23 be ec 0a 3e 3d a4 ef 62 bd
       -0.12660643 -0.15941422 0.046397135 -0.05540432
0003e0 78 cf f1 bd ba 0c 93 bd 4a 5c d0 be 67 cf ff 3c
       -0.1180715 -0.07180162 -0.4069541 0.031226827
0003f0 ec 02 e8 bd b8 95 ea 3c 0d b4 61 be e6 d5 6b be
       -0.11328682 0.028635845 -0.2204134 -0.23030815

arith.constant4 f4 [64, 3, 3, 32]
000000 d3 3b a4 3d d4 5b d3 bd f7 15 01 3e 6e ef bf bd
       0.08019223 -0.10320249 0.12606035 -0.093718395
000010 71 a1 50 be d3 e2 1a 3e 71 22 76 3e 88 2d 35 be
       -0.20374085 0.15125589 0.24036576 -0.1769315
000020 4b 79 75 be 27 cb 2e 3d 2e fd 73 bd 79 ed f8 3c
       -0.23972051 0.04267421 -0.059567623 0.030386673
000030 9e c2 e8 3c a8 0d 8f 3c a3 25 1c 3d c6 1f aa 3d
       0.028413113 0.017462566 0.03812183 0.083068416
000040 41 c7 44 3e 09 12 f7 bd 69 90 ab 3c 14 24 21 be
       0.19216634 -0.12063987 0.020942884 -0.15736419
000050 da 89 e5 3c f0 1e 7e 3c 57 31 a3 3d 57 2d 77 be
       0.028019834 0.015510306 0.07968395 -0.2413839
000060 e9 6d 48 3d 1e 12 4f 3e 27 d4 96 3c f9 6e d3 bd
       0.048932943 0.20221755 0.018411709 -0.10323901
000070 f9 0f 8e 3d 48 2a f4 3c f5 42 7e 3d 7d 41 88 bd
       0.0693664 0.029805318 0.062075574 -0.06653116
000080 b4 aa 1c 3d 1e 43 03 bd 1e 27 ac bd 92 58 02 be
       0.038248733 -0.03204643 -0.084058985 -0.127291
000090 3e 8a 03 bf e0 9e 86 bd 81 28 13 3e 23 47 fc bd
       -0.51382816 -0.06573272 0.1437092 -0.12318256
0000a0 6d 23 f3 3d 4e c0 9f bc c1 4d fc bd 26 af 49 3d
       0.11871991 -0.019500878 -0.12319518 0.0492393
0000b0 ce 65 44 bd 47 c4 1f be 7f c7 67 3e 9a cd c2 bd
       -0.04794865 -0.15602218 0.22634695 -0.09511872
0000c0 62 41 98 3e 55 1e 4a bc 1c c7 cf 3c 30 a5 d7 bd
       0.29737383 -0.012336333 0.025363497 -0.10529554
0000d0 c5 14 80 bd 62 6a c8 3d ca ef 55 3c f3 a1 0e be
       -0.062539615 0.09785916 0.013057658 -0.13928966
0000e0 b1 32 c0 bd a7 9f 13 3e ef 53 06 3e dc ea d0 bc
       -0.093846686 0.14416371 0.13117956 -0.025502615
0000f0 a2 11 a9 3c 29 87 a4 3d 5b 66 25 3e 74 2e ac 3d
       0.02063829 0.08033592 0.16152327 0.08407298
000100 87 af 87 bd 3f 95 07 bd 37 92 1e be 67 de b5 bd
       -0.06625276 -0.033101317 -0.15485464 -0.088803105
000110 2b 59 b5 be d8 cf 04 3e a3 06 9c 3d de e5 e0 bc
       -0.35419592 0.12969911 0.07618453 -0.02745336
000120 cc 8c 09 3c fe 5e c3 bd 61 50 3c 3b be 8c e7 3d
       0.008395385 -0.09539603 0.0028734433 0.11306141
000130 3f 58 10 be 1b 95 d4 3c 5d fd 00 3e fe 0e 9a bd
       -0.14096163 0.025950005 0.1259665 -0.07522391
000140 c0 24 3c bd b6 a5 19 3d a6 d9 43 3d 50 b8 c4 3c
       -0.045933485 0.03751155 0.047814988 0.024013668
000150 0b 48 0b 3d 21 d9 07 bd 4f 51 e5 bd 80 b5 d8 bd
       0.034004252 -0.033166055 -0.11197149 -0.105814934
000160 b9 71 68 3c ef 31 88 3e 8f ed a4 bd ce c9 9f 3c
       0.01418727 0.26600596 -0.08053123 0.019505408
000170 51 f4 12 3e 46 f6 29 be 78 a8 e4 3c 83 48 3d 3d
       0.14351012 -0.16597852 0.027912363 0.04621173
000180 06 15 10 bd 13 d4 c8 bd e9 c4 0f 3c b1 d1 d1 bd
       -0.0351763 -0.09806075 0.008774974 -0.102450736
000190 ce 90 06 3d 73 86 d3 3d 00 a4 d0 3d d5 03 4a bd
       0.03285294 0.103283785 0.101875305 -0.04932006
0001a0 9f 2f ce bc ed 23 1e bd 31 ef d3 bd e6 e8 8c 3d
       -0.025169192 -0.03860848 -0.103483565 0.06880359
0001b0 c7 8f 88 3d 4d 48 50 3e 98 c6 e2 bd da ae b1 bd
       0.06668048 0.2034008 -0.11073035 -0.086759284
0001c0 12 23 7a 3d 3e 30 40 bd 6d c3 b5 3d 69 b4 92 3d
       0.061068602 -0.046921007 0.08875165 0.07163317
0001d0 55 b3 c8 bd 52 90 d8 3c 9f 97 db bb 37 3c a9 3d
       -0.0979983 0.026436005 -0.0067014243 0.08263438
0001e0 8c 59 0a 3d 36 6f 0f 3e 38 87 d3 3d ef ca 35 3d
       0.033776805 0.14007267 0.10328525 0.044382986
0001f0 f2 17 e8 bd db 2b 8a 3d 32 5d 81 bd d3 f5 95 bd
       -0.11332692 0.06746646 -0.06316604 -0.07322278
000200 3b f8 01 3d fc 85 1a 3d 43 3e c4 3c b7 7e d1 bd
       0.03173087 0.037725434 0.02395547 -0.10229247
000210 92 bd 2f bd 4d f1 43 3d b4 1c 67 3e bf 57 e7 3d
       -0.042905398 0.047837544 0.22569543 0.11296033
000220 07 82 05 3d f8 55 66 be 04 65 36 be de 19 cb 3d
       0.032594707 -0.22493732 -0.17811972 0.09917043
000230 66 e4 f5 3d 1d 71 2f 3e 85 5c 46 3c 3a 77 61 bc
       0.12006454 0.17132993 0.012107019 -0.013761336
000240 14 c3 bf bd 4b a3 a9 be c8 5c 92 3d 0a 92 53 be
       -0.0936338 -0.33132395 0.07146603 -0.20661178
000250 56 d5 4f be d6 00 c5 bd ea 5e 1a be 89 7e cb 3d
       -0.20296225 -0.096193 -0.1507527 0.09936244
000260 26 60 8d bd 57 9c b1 3c 2b 14 54 bc 56 55 44 3b
       -0.069031045 0.021680994 -0.012944262 0.002995809
000270 63 20 13 3d 4e 80 e5 bd 26 bc 2d be f4 c7 b2 3c
       0.03591956 -0.11206113 -0.16966304 0.02182386
000280 9e 8b 31 3c 93 60 67 bb ac 04 19 3a 5f b5 13 bd
       0.01083651 -0.0035305365 0.0005837183 -0.03606164
000290 f9 73 0c 3e 69 88 15 3d 0e 7e 6f 3d b2 86 0b 3e
       0.13716115 0.036507044 0.058469824 0.13625601
0002a0 23 0d 77 bd 8a f0 fe bd 1c ee 03 bd cb df 81 bd
       -0.060315263 -0.12448223 -0.0322095 -0.06341513
0002b0 59 f1 6d bd da e8 86 3d 68 e1 38 3d d5 ee 18 3e
       -0.058091495 0.06587382 0.04513684 0.14934857
0002c0 a0 0d e4 3d f4 38 8b be c5 05 1b 3e 3a 1d 3c be
       0.11135411 -0.2719189 0.1513892 -0.18370524
0002d0 d9 c0 22 be ff 1d 03 3d 41 6f 8d bd 10 4f 2f bc
       -0.15893878 0.03201103 -0.069059856 -0.010700002
0002e0 ff e4 69 be 93 39 9d be 5c 7f 95 bd 70 48 e0 bc
       -0.22841261 -0.30707988 -0.072996825 -0.02737829
0002f0 6b a5 90 3d 2d 0f 71 3c e3 07 98 be 16 90 07 3e
       0.07062801 0.014713091 -0.29693517 0.13238558
000300 d1 a6 8c bd 66 2b 41 bd b4 eb a9 3d b9 56 bb bd
       -0.06867755 -0.04716053 0.0829691 -0.091474004
000310 e4 5b 70 bd f0 dc 22 3d f5 8b 0d bd dc 50 69 3d
       -0.058681384 0.039761484 -0.0345573 0.05696188
000320 03 19 d7 bd c2 34 4b 3d 64 67 a0 3c cd 88 01 be
       -0.105028175 0.04961086 0.01958055 -0.12649842
000330 70 3b f0 3d ae 67 f5 bc d7 84 00 3e 69 9c c0 bd
       0.11730087 -0.029956665 0.12550674 -0.09404833
000340 ce 95 fb bd 63 36 f4 bd b0 25 39 3d de 40 62 3e
       -0.12284432 -0.11924436 0.045201957 0.22095057
000350 a7 11 8d 3d 59 22 69 3b fe 24 e4 3d d7 a6 ef bd
       0.068881325 0.0035573451 0.11139868 -0.11701744
000360 b6 dc 1c 3d 1d b4 26 3b d7 f8 b4 3d fa 49 16 3d
       0.038296424 0.0025436946 0.08836525 0.036691643
000370 22 99 d5 bd 34 af 94 bc 9b b9 97 be e4 46 a8 bc
       -0.104295984 -0.01814995 -0.29633793 -0.020541616
000380 e6 f0 f3 3d 0c 07 0b be 3f 5b d8 bd 7b 95 36 bd
       0.11911182 -0.13576907 -0.10564279 -0.04457615
000390 c9 6c d5 bb 77 a7 42 be 27 1f 9d bd 5f 9b 77 bd
       -0.0065132123 -0.19009195 -0.076719575 -0.060450908
0003a0 1d 5a 13 be c3 f4 e0 bd c0 0d dc bc b5 2f ec bd
       -0.14389844 -0.109841846 -0.026862025 -0.11532537
0003b0 19 6d 13 be da ad d8 bd 50 79 e1 be 0d e9 5d bd
       -0.14397086 -0.105800346 -0.44037867 -0.054177333
0003c0 12 91 27 be d4 7c 80 3d 11 bc 9d be 7d 7c e5 bc
       -0.16363934 0.06273809 -0.30807546 -0.028013462
0003d0 01 24 39 bd 35 90 26 bd 62 a5 11 3d d2 4d 7d be
       -0.04520035 -0.04066487 0.035558112 -0.24736717
0003e0 0b 92 70 3e 7c 89 95 bd 18 6b ac 3c f2 3a f3 bc
       0.23493211 -0.07301614 0.02104716 -0.029691193
0003f0 b4 54 b7 3d 03 6e 45 bd ad 2f f7 bd a2 8b 21 bd
       0.08951703 -0.04820062 -0.1206964 -0.039439805

arith.constant5 f4 [32, 5, 5, 32]
000000 af fe 2f 3c 33 c3 3b bd 0f 09 b0 bd fb b1 86 3d
       0.010741874 -0.045840453 -0.08595478 0.06576916
000010 ad b4 63 bd d6 79 aa 3b 1e ff dd bc b6 c0 ef 3d
       -0.055592228 0.0052025123 -0.027099188 0.117066786
000020 77 bc 3e 3c b4 d0 36 3d fa 41 df 3c 24 91 8b bd
       0.011641613 0.04463263 0.02725314 -0.06814793
000030 ae 5a 2a 3e d9 04 73 3c ef 05 8a bc 23 88 01 bd
       0.16636154 0.014832699 -0.016848532 -0.03162397
000040 31 52 69 3d 2d 7e 8b bd 2b 50 b8 bc f5 dc 76 bc
       0.05696315 -0.068111755 -0.022499165 -0.015067329
000050 8a c9 36 be 10 0c 1a be c8 8e a3 3c 53 e7 23 3d
       -0.17850319 -0.15043664 0.019965544 0.04001553
000060 40 21 37 3a de ed 83 bb 9f 24 08 3d 0c 93 ab 3b
       0.00069858506 -0.0040261587 0.03323805 0.005236035
000070 3b 75 f5 3b 73 18 35 3d 5f 04 4a 3c be 9d 7a bc
       0.0074907816 0.04421277 0.012330144 -0.015296398
000080 0d c3 35 3d 60 40 ec bd 84 74 0a bd bf 21 89 bc
       0.044375468 -0.11535716 -0.033802524 -0.016739724
000090 3f 9b 85 3c 9a 90 e5 bd db 1f ec 3c c8 59 04 bd
       0.016309379 -0.11209221 0.028823784 -0.032312185
0000a0 c3 a8 7d bb c1 81 11 3d 61 75 51 3d bf 76 44 bd
       -0.0038705326 0.035524134 0.051137332 -0.047964808
0000b0 1b 97 30 3b ed b3 0e 3d 07 e4 f2 3c 91 d9 5c bd
       0.0026945535 0.03483956 0.029649748 -0.053918425
0000c0 2a e5 7e bd 8f 2a a9 ba 7d b5 b7 3c a6 4c 1a 3c
       -0.062230267 -0.001290636 0.022425408 0.0094176885
0000d0 41 22 2f be a2 28 81 bd 5c d7 07 bc cb c5 75 bd
       -0.1710291 -0.06306578 -0.008291092 -0.060003083
0000e0 83 0b 5c bd 8f 2c 0b 3c 37 9d 86 bd c5 bc 91 bc
       -0.053721916 0.00849451 -0.06572955 -0.017790208
0000f0 e6 31 5d bd 02 6b c7 bc ad 47 fd 3c 95 b1 32 3d
       -0.054002665 -0.024343017 0.030917967 0.043626387
000100 d9 60 2c bd e1 97 43 bd 4c 01 09 3d 74 5c 4d be
       -0.04208455 -0.047752265 0.033448502 -0.200548
000110 11 fa 2a bd c7 05 77 bd 29 c6 ed bc 47 9e 80 bd
       -0.04174239 -0.060308244 -0.029025154 -0.06280189
000120 13 02 f1 bd d5 40 c5 3c 62 c4 d5 bc 17 c3 10 3b
       -0.11767974 0.024078766 -0.02609462 0.002208894
000130 a3 6d 04 3d 0e 3c 1c 3d b2 62 64 bd f9 25 a7 bd
       0.03233112 0.03814321 -0.055758186 -0.081615396
000140 83 0e f8 bc 9f 4a d5 3c 1e c5 77 3d 0c b5 6b 3c
       -0.030280357 0.026036559 0.06049072 0.014386427
000150 45 fa 2f 3d 67 55 2a be 99 63 b9 3c c1 18 6a bd
       0.042963285 -0.16634141 0.0226305 -0.057152513
000160 bf 4e 0b 3d d7 20 23 bd f2 a0 6e bd bf 55 bb 3c
       0.034010645 -0.03982624 -0.05825896 0.022868035
000170 74 2b 3d bd 0c af 14 3c c9 fb 67 bd 17 07 bb 3b
       -0.04618402 0.009074938 -0.056636605 0.0057076323
000180 dc 9b 84 bb c3 72 18 3d da 93 15 3d af 8f 82 be
       -0.0040469 0.03721882 0.036517955 -0.25500247
000190 3b 61 32 3d 61 94 25 be 44 90 df 3b 43 85 18 3d
       0.043549757 -0.16169883 0.0068226177 0.037236463
0001a0 1b 5c a5 bc 02 bf 76 bb 6c 97 8c bc e6 c1 37 bd
       -0.02018552 -0.003765047 -0.017162047 -0.04486265
0001b0 ce 0d a1 3d 3c 69 4f bd 49 dd 52 3d 2b 4d c1 bd
       0.07863961 -0.05063747 0.051480565 -0.09438547
0001c0 68 0e 0b 3d 29 87 28 3d e5 49 a5 bc 88 80 e1 bb
       0.033949286 0.041144524 -0.020176837 -0.006881777
0001d0 90 ff a7 3d 8c 58 2f be 2a 6a d8 bb ea 2a 89 bd
       0.082030416 -0.17123622 -0.0066044526 -0.06697638
0001e0 ea b0 93 bc 73 39 98 bd a3 d5 ed 3c fd d2 92 3d
       -0.018028695 -0.074328326 0.029032534 0.07169149
0001f0 49 b6 75 bb 81 da 26 3d 38 e7 12 bd 66 97 5a bc
       -0.0037492684 0.040735725 -0.03586504 -0.01334176
000200 88 03 17 bd 73 69 66 bc de 7f fc bc 6e e6 4d bd
       -0.036868602 -0.014063227 -0.03082269 -0.050268583
000210 c8 fb 4a 3d 79 13 66 bd 93 37 65 bd 4b db 32 3d
       0.049556524 -0.056170914 -0.055961203 0.043666165
000220 d3 ed 2d bd ba 03 17 3d 7f 5f f5 bc 34 d5 0e 3d
       -0.042463135 0.03686879 -0.029952763 0.034871295
000230 2c ce 8d bc e5 d6 19 bd 43 eb 20 bd e8 ec b0 bd
       -0.017310224 -0.037558455 -0.039286863 -0.08638936
000240 86 0c 81 bc ef 70 a4 3c 8c db bb bc c4 32 c8 bc
       -0.015753042 0.020073382 -0.022931837 -0.02443827
000250 49 b4 91 3d 33 9c 8d be 2a 95 02 3d c0 6e c6 bc
       0.07114465 -0.27658233 0.031880535 -0.024222732
000260 2d f0 29 b9 f6 6a 4c bc 3b f8 1f bd fb f8 22 bd
       -0.00016206568 -0.012476673 -0.03905509 -0.039788228
000270 c7 a6 67 bc 08 34 1f bd 82 77 2a bc 4f 6b 1a 3c
       -0.014138884 -0.03886798 -0.010404469 0.009424998
000280 65 68 f2 bc 90 e9 2b be 77 88 a5 bd 64 ec 44 3d
       -0.029590795 -0.16788316 -0.08082669 0.048077002
000290 09 e9 2c 3d 73 4c 92 bc 96 d4 f0 3b d7 69 94 3d
       0.042214427 -0.01785872 0.007349561 0.0724675
0002a0 78 e4 9c bd f8 93 70 3c 67 01 67 3d a4 4d 21 3d
       -0.076607645 0.014683716 0.05639782 0.039380684
0002b0 bd 03 d1 bc 44 c2 00 bd f4 36 d5 3c 11 e6 44 bd
       -0.025514478 -0.031435266 0.02602718 -0.04807097
0002c0 2a 68 24 3d f3 9f 5d bc 04 98 d3 3c 21 a0 2c 3d
       0.0401384 -0.013526904 0.025829323 0.0421449
0002d0 a5 40 ae bd 68 20 e8 bc 3a 8e fb 3b a4 7e 39 bb
       -0.08508424 -0.028335765 0.007676867 -0.0028304243
0002e0 63 41 86 3c 7a 1a 8c bd d1 e3 c0 3c 50 73 2d bd
       0.0163886 -0.068409875 0.023546131 -0.0423463
0002f0 96 ff 6d bd 72 57 77 bd 98 fd 87 bc 63 29 34 bd
       -0.058105074 -0.06038613 -0.016600415 -0.043984782
000300 64 c1 1d bd a2 d6 e1 bd 6d 8f 45 bd d7 9c 89 3c
       -0.03851451 -0.11027266 -0.048232485 0.01679842
000310 cb ae af 3c 01 8f b7 bd bc 41 27 bd 07 a6 c2 bd
       0.021445652 -0.08962823 -0.040834174 -0.095043235
000320 14 81 9f be 53 a8 0d bd 2d b6 4d bd c4 d3 69 3c
       -0.31153166 -0.034584355 -0.050222564 0.01427168
000330 bf 35 97 bd b1 a1 8a 3c e4 6a eb 3c 41 be ac bc
       -0.07383298 0.016922804 0.028737493 -0.021086814
000340 50 63 8f bd 52 17 54 bd 92 ae 72 bd eb 96 2f 3d
       -0.07001364 -0.051780052 -0.059248514 0.042868536
000350 a6 1d aa bd 8f 9e 3c bc f2 9e 01 bc 69 75 db bc
       -0.08306436 -0.011512413 -0.007911431 -0.026789384
000360 51 c6 87 bd b5 49 7f bc 00 d0 b2 b7 d4 9b d1 3c
       -0.06629623 -0.015581538 -2.1316111e-05 0.025587
000370 59 e6 a7 3c 89 f0 5a bd 4d 07 44 bd 3f 48 52 3d
       0.02049558 -0.05345205 -0.047858525 0.05133843
000380 fb df 04 bc ad 4d f8 bc 25 bb d8 bb fe 10 38 be
       -0.008110042 -0.030310476 -0.0066141062 -0.17975232
000390 de 18 38 bd 1a 98 b2 bd f2 25 63 bd 9d f3 af 3b
       -0.04494559 -0.08720417 -0.05545611 0.005369617
0003a0 c9 72 85 bd 08 dc c6 3b c7 b7 45 3d 99 e1 ca 3b
       -0.06516034 0.0060687102 0.048270967 0.006191444
0003b0 ba 0f c7 bd 54 fd 99 bc e0 e5 29 3d a7 8b 18 bc
       -0.097197965 -0.018797554 0.04147899 -0.009310639
0003c0 9e 87 a6 3c 30 d3 33 bd 32 95 99 bc a9 4f 1a 3d
       0.02032834 -0.043902576 -0.0187479 0.037673626
0003d0 fc 5f 80 bd 06 cc c5 bd 34 e3 e0 3c 8d b7 bc 3c
       -0.062683076 -0.09658055 0.027452089 0.023036743
0003e0 d7 c1 62 3d b0 53 37 bd e6 e8 ce bc fc b7 be 3c
       0.05536064 -0.044757545 -0.025257539 0.02328109
0003f0 57 11 56 3d c9 82 5b 3d 7b 0a 7d 3d 2e 55 09 bd
       0.05226263 0.053591523 0.061777573 -0.0335285

arith.constant6 f4 [43, 256]
000000 2e cf 1a 3d 1b 8f 57 be c0 f4 0c be a3 b2 62 be
       0.03779524 -0.21050684 -0.1376524 -0.22138457
000010 5e 18 ca be c1 30 6f be 0c 02 dc be ad 28 72 bc
       -0.39471716 -0.23358442 -0.42970312 -0.014780206
000020 ef 00 29 be 55 68 12 bf a1 25 7b 3d 24 4a 4f be
       -0.16504262 -0.5719045 0.061315183 -0.20243126
000030 7b d3 15 be 99 d2 c8 bc ca 43 42 3d c0 71 65 3d
       -0.14631455 -0.024514483 0.04742793 0.056016684
000040 68 76 a5 3d 2d 9f b9 be 60 af 7a 3d ac 2c d2 3c
       0.08079225 -0.36254254 0.061202407 0.025656067
000050 73 f7 b4 bc 52 99 b1 3d f6 95 f0 bd 54 4f 95 3c
       -0.02209065 0.08671822 -0.11747353 0.018226303
000060 d3 41 d0 3c 3d 66 71 be ee 91 a6 bc 9f 14 c4 bc
       0.025422012 -0.23574157 -0.020333257 -0.023935614
000070 d8 f2 41 be 38 62 a8 3c 01 a1 23 be 64 29 09 3e
       -0.18940294 0.020554647 -0.15979387 0.13394696
000080 d1 bf e0 3d 90 4f 1b bd 06 47 ac be 84 72 24 3b
       0.10974086 -0.037917674 -0.33647937 0.002509267
000090 03 d9 94 be 9e 1f 98 be 6e ee 47 3c a0 09 b0 bd
       -0.29071817 -0.29711622 0.012202842 -0.08595586
0000a0 2e 6e 1e bf b4 10 b0 be 07 2e cb bd bf 92 ce be
       -0.6188687 -0.34387743 -0.099208884 -0.40346333
0000b0 a7 93 bb 3d 73 9f d2 bd d5 0c 2e be 6d 61 92 be
       0.09159022 -0.10284319 -0.16997083 -0.28589955
0000c0 30 13 82 3c 56 1b 1d be cf c4 8f be 59 b3 2d be
       0.01587829 -0.15342459 -0.2807984 -0.16962947
0000d0 45 ec 4b be 13 07 17 3d 8e 59 b6 be 27 c8 30 bd
       -0.19914348 0.03687198 -0.356152 -0.04315963
0000e0 5b b7 b7 3c 41 22 37 be c9 1e d6 be 3f 70 f2 be
       0.022426298 -0.1788416 -0.41820362 -0.47351262
0000f0 37 ac c1 be 00 8f 2e be fb eb 80 be 2b 36 f9 3c
       -0.37826702 -0.17046738 -0.2518004 0.030421337
000100 dc 93 b5 bd ef 7a e3 3c d2 c5 5a bd a2 db c7 be
       -0.088660926 0.02776858 -0.053411312 -0.39034754
000110 8a df 9d bd 85 18 94 be b4 56 cf be 55 0e cd 3b
       -0.07708652 -0.28924957 -0.40495837 0.006257812
000120 61 59 86 bd a5 8e 2a 3c 08 0c 03 bf 11 3c 8c be
       -0.065600164 0.010409986 -0.51190233 -0.27389577
000130 e8 cb 38 be bc 4f e2 bd a1 eb 23 be 2a 12 00 be
       -0.18046534 -0.110503644 -0.16007854 -0.12506929
000140 f7 8a 2a bf ca 7d 8f be 65 36 e4 bd ff 18 3e be
       -0.66618294 -0.28025657 -0.111431874 -0.18564223
000150 1a 52 45 be 50 c7 2c 3e 4a 05 96 3d 71 bd 67 bd
       -0.192696 0.16872907 0.073252276 -0.05657715
000160 01 cf e3 3d 66 fd 26 bf 94 ea 2b bf 9d 9a c1 be
       0.11123467 -0.65230405 -0.6715481 -0.37813273
000170 a6 1c 00 be 4d c9 10 bf 60 65 0e 3d ab 08 3f 3e
       -0.12510929 -0.5655716 0.034764647 0.1865565
000180 74 cd 06 bf 7e a3 ee be 6c 25 30 be 46 21 02 3e
       -0.52657247 -0.4660911 -0.17201775 0.12708005
000190 ea 7d 45 3d 58 93 b9 bc 70 c1 2f be be 69 95 3c
       0.048215784 -0.022653267 -0.17163634 0.018238898
0001a0 7a 96 f9 bb 51 60 28 be 94 24 ce 3d 18 0e 8c be
       -0.007616815 -0.16442992 0.100655705 -0.27354503
0001b0 20 2d e5 3d ae 51 ad be b4 53 00 bf 85 26 c7 be
       0.111902475 -0.3385138 -0.5012772 -0.38896576
0001c0 b9 55 3d bc 4f 74 a2 be c9 b8 64 be 04 12 41 bd
       -0.011556082 -0.3172936 -0.22336115 -0.04713632
0001d0 42 7e 58 3d 03 da 2c be d5 79 11 be e8 b1 e7 bc
       0.052854784 -0.1688004 -0.14206631 -0.028283074
0001e0 82 40 5c be 78 a9 c4 be ec 25 28 be 08 67 fc bd
       -0.21508983 -0.38410544 -0.16420716 -0.12324339
0001f0 70 13 7b bd 21 a5 8f be 13 dc 38 be 19 a8 d5 bd
       -0.061297834 -0.2805567 -0.18052702 -0.10432453
000200 2b 2c b7 3d 8f a9 91 bd ac a4 e0 3c 7a f1 5c bd
       0.08943971 -0.07112419 0.027422272 -0.053941227
000210 67 e2 97 be 01 13 26 bf de 16 38 bd c9 d9 3b 3b
       -0.2966492 -0.6487275 -0.044943683 0.0028663746
000220 31 6d 09 bf d9 1e 7d bc 21 29 29 be 03 02 c5 3d
       -0.5368224 -0.015449249 -0.16519596 0.09619524
000230 9e eb 9b be d4 b0 15 bf 80 0d dc bd a9 10 e3 be
       -0.304532 -0.58472943 -0.107447624 -0.44348648
000240 3d 7e c1 3d ed 67 be bd 1c 2b 8a bd 5c 05 0b be
       0.09447906 -0.09297166 -0.06746504 -0.13576263
000250 72 36 0c bf 89 f0 fd be 1a a3 28 be 0b ca 6c be
       -0.54770577 -0.49597576 -0.16468468 -0.23123948
000260 ed 86 e1 bd a5 29 36 be 32 93 d0 bd 3d 5a 25 be
       -0.11012063 -0.17789324 -0.10184325 -0.16147704
000270 16 4a e6 be 36 2a f2 3d 37 9c 55 3b 5b a8 14 3e
       -0.44978398 0.11824457 0.0032594332 0.14517348
000280 76 73 25 3d 6f 19 15 bf f3 db 5b be 47 6f 55 3d
       0.040393315 -0.58241934 -0.21470623 0.052108075
000290 e4 90 39 be fe ae 71 be c4 90 a5 be f1 e0 57 bd
       -0.18121678 -0.2360191 -0.3233701 -0.052704755
0002a0 7b d1 1d 3e e1 c9 37 bd b6 44 68 3d cc aa 05 bf
       0.15411942 -0.04487026 0.056706153 -0.5221374
0002b0 12 48 18 be 94 6f 88 bd 51 5a 95 be 14 1c 4b be
       -0.14871243 -0.06661907 -0.29170468 -0.1983493
0002c0 bf df 88 bd 2d 13 f5 be 76 0a f6 be 10 0c 05 3c
       -0.06683301 -0.47866192 -0.48054856 0.008120552
0002d0 fe 4b 97 bc 59 29 8a 3d 67 0a 2a be 39 22 cc be
       -0.018468853 0.06746168 -0.1660553 -0.3986986
0002e0 af 46 5c be c7 aa c5 3d 0c 2e 7f be 9b 86 29 bd
       -0.21511339 0.09651714 -0.24919909 -0.041388135
0002f0 ab 8c 0d bd f1 26 59 be 56 84 d7 be 98 39 07 bf
       -0.03455798 -0.21206261 -0.42093152 -0.52822256
000300 e3 93 df bd c9 de 7f bd 10 31 16 3c d0 ee 5b bf
       -0.10916879 -0.062468324 0.009166971 -0.85911274
000310 08 ac 87 bd c2 2d 8f bd e6 ae b4 bd fe dd 86 be
       -0.06624609 -0.069911495 -0.08822422 -0.26341242
000320 3a f7 83 3d 37 0a 7b be f7 cc d5 bd 06 fe fd be
       0.06443639 -0.24515615 -0.104394846 -0.49607867
000330 0d 53 41 be aa b4 85 3c 03 97 62 be 54 71 3d 3e
       -0.18879338 0.016321499 -0.22127919 0.18500262
000340 75 39 0b 3d 66 9e bf bd f5 f0 9d be 31 8c 73 be
       0.033990342 -0.09356384 -0.30847898 -0.23783948
000350 f3 87 d2 3c f8 41 1d be 50 a0 1d be 27 a8 1e 3e
       0.025699591 -0.15357196 -0.15393186 0.15493833
000360 38 ed 4a bd cc fe c1 be 96 22 f8 be 79 dc b9 be
       -0.049542636 -0.37889707 -0.48463887 -0.3630102
000370 cb 79 05 bd 6e da 4e be e0 4c 98 be 9e 9e 64 be
       -0.032586854 -0.20200512 -0.2974615 -0.22326133
000380 8b c2 11 bd f8 f3 80 3c fa 7b 13 bd 13 e2 46 be
       -0.03558592 0.015741333 -0.036006905 -0.19422178
000390 f2 8b 58 bf 97 4c c1 bc 8a b4 6b 3d 02 9f a8 3d
       -0.8458854 -0.023596091 0.057545222 0.08233453
0003a0 3f 91 c5 3d a0 ce 4a be 2a a1 bb be 13 61 1a 3e
       0.09646844 -0.19805384 -0.36646396 0.15076093
0003b0 75 83 fc be 9f 2e 58 bd 27 36 2a 3e 2d 90 41 3d
       -0.49319044 -0.052778836 0.1662222 0.047256637
0003c0 24 dc 05 be c6 ad 2b 3e d5 10 82 3d 0d fd ab be
       -0.13072258 0.16765508 0.06350867 -0.335915
0003d0 57 75 18 be 39 e0 f6 bd e5 ea 8e bd 5d 82 88 be
       -0.14888512 -0.12054486 -0.06978396 -0.2666196
0003e0 93 f7 90 be 6e 7f b7 3b bd b8 a4 bd 13 37 62 bf
       -0.28313884 0.0055999076 -0.080430485 -0.88365287
0003f0 79 77 90 be cd 85 09 3d ab 81 b2 be 33 b0 38 be
       -0.2821615 0.033574868 -0.34864554 -0.18035965

arith.constant7 f4 [256, 64]
000000 69 49 ba 3d f6 5b ff bd 23 f8 78 be 20 fe 1a be
       0.09096033 -0.12468712 -0.24313407 -0.15136003
000010 f6 b4 b6 bd 07 12 8a 3d e1 60 31 bc 07 fc 9d bd
       -0.08921234 0.0674172 -0.01082632 -0.07714086
000020 77 2e 34 be ca 95 e9 bc 18 78 83 be 71 6c 00 bc
       -0.1759585 -0.028513808 -0.25677562 -0.007838354
000030 32 29 cf bc d1 58 99 3d f5 59 bf 3c 19 e8 2a 3d
       -0.025288198 0.074876435 0.023358325 0.04172525
000040 e9 14 df bd 33 10 70 be 1b b3 ee 3d cc 32 8d bc
       -0.1089266 -0.2344368 0.116552554 -0.017236136
000050 38 0d fe bd 12 34 d0 3c fc ad 29 bc a0 3a 26 be
       -0.12404865 0.025415454 -0.0103564225 -0.16233301
000060 1f 96 b1 3d a7 ed 97 bd 0e cf 4f be fd 49 68 be
       0.086712115 -0.074183755 -0.20293829 -0.22684474
000070 af c6 64 bc 35 17 90 3d 37 b2 4c 3d 33 dc ee bd
       -0.0139633855 0.070356764 0.049974646 -0.116630934
000080 69 fb 9a be 0d 84 90 bd 38 83 84 bd e9 d7 b3 3b
       -0.30269936 -0.07056437 -0.064703405 0.005488385
000090 ca 4a 02 be f7 3a fa bd 64 ca 2a 3e 35 c1 1d be
       -0.12723842 -0.12218278 0.16678768 -0.15405734
0000a0 1c 19 3c bd 08 2b a6 be fe cc ee bd bf e4 1f be
       -0.045922384 -0.32454705 -0.11660193 -0.15614603
0000b0 5b 6f cd 3d 2c 46 c3 be 55 5d 34 be af f4 90 be
       0.10031005 -0.38139474 -0.17613728 -0.2831168
0000c0 43 f2 aa be 52 93 eb bd aa 3f 2a bc d7 c6 90 3d
       -0.33387956 -0.115027085 -0.010391155 0.07069176
0000d0 5e a1 ba bd 6a 20 65 be 5b 6e ca bd 27 16 24 3d
       -0.091128096 -0.22375646 -0.0988433 0.04006019
0000e0 b6 13 4f bd 8b 5a 40 be 83 b5 91 be b2 ed 3c be
       -0.050555907 -0.1878454 -0.28458795 -0.18450049
0000f0 20 45 51 be 90 c0 e6 bc 33 0c 09 bd fc 81 64 be
       -0.20436525 -0.028167993 -0.0334589 -0.2231521
000100 38 d4 c0 bd db 21 6b bd 37 aa 88 3d db dc 87 bd
       -0.094154775 -0.057405334 0.06673091 -0.06633922
000110 36 b8 45 be ce 92 09 3d db 9f 6c 3c f3 12 5b be
       -0.19308552 0.03358727 0.014442409 -0.21393947
000120 03 aa ea be d4 26 2e be 43 4f e0 3d d9 b7 3f be
       -0.45832834 -0.17006999 0.10952618 -0.18722476
000130 2e 29 57 3d 06 7d bb bd 39 88 23 3d 94 78 07 bc
       0.052529506 -0.09154706 0.039924834 -0.008268494
000140 97 74 97 be 10 15 55 bd 62 a3 07 bd 04 cc 22 bd
       -0.29581138 -0.05202204 -0.0331148 -0.039745346
000150 d0 db 68 be 03 cb 85 bb ef 86 02 bd c6 37 9c be
       -0.22740102 -0.004083039 -0.031866964 -0.30511302
000160 dc 82 d4 3d ff 6a c5 bd e2 27 0e be be 99 8d be
       0.10376522 -0.096395485 -0.13882402 -0.27656358
000170 5d 75 d7 3d 50 58 06 be 1d a5 b8 bd c2 75 43 3e
       0.10520432 -0.13119626 -0.09015868 0.1908789
000180 8b df a6 be 03 e6 9a 3d 8a f3 a8 3d 12 ef 9a 3d
       -0.32592425 0.075634025 0.082495764 0.0756513
000190 bd ad a7 3d 3c d8 ef bd 68 06 2f 3c b3 8b ab 3d
       0.08187435 -0.11711165 0.01068268 0.08376255
0001a0 23 44 99 3d f0 9e a9 3d fc 08 99 be 49 40 86 be
       0.07483699 0.08282268 -0.29889667 -0.2622092
0001b0 ba 95 0c be 58 50 ee bc 1d 92 e7 bc 00 8e 07 3e
       -0.13728991 -0.029091045 -0.028267914 0.13237762
0001c0 07 6e 19 bd f0 a1 95 be 0d 58 5d bc 21 64 1b be
       -0.037458446 -0.2922511 -0.0135097625 -0.15174915
0001d0 b2 a1 41 bd 15 06 80 be 68 24 87 bc 49 b5 16 3d
       -0.047273345 -0.2500464 -0.016496852 0.03679398
0001e0 47 56 7c bd 8f f0 e8 bc d3 9b b5 3d 83 9d b8 3d
       -0.061605718 -0.02843502 0.08867612 0.09014418
0001f0 02 a0 11 be f4 54 65 bc 8a e9 cb bc 34 e7 f9 bd
       -0.14221194 -0.013997305 -0.024891634 -0.122023016
000200 9e f8 0f be 79 9e 7f 3d a4 6b 91 bd 74 dc 38 bd
       -0.14059684 0.06240699 -0.07100609 -0.045132115
000210 b0 ff ba be c1 ed bf bd d7 46 44 be fb 2c f5 3c
       -0.365232 -0.0937152 -0.19167648 0.029928675
000220 4c c4 dc bd cd 9f 6f bc 8e 79 08 be 50 24 b7 3d
       -0.10779628 -0.014625502 -0.1332762 0.08942473
000230 e8 e6 17 be 22 88 41 be c3 cb 86 bd ae e2 85 3b
       -0.14834177 -0.18899587 -0.06581833 0.00408586
000240 44 fd 23 3e e0 d4 74 3d 81 f0 04 be 24 28 8a be
       0.16014582 0.059773326 -0.1298237 -0.2698375
000250 de 90 34 be ab b2 18 be 3d 84 e6 3c fd eb 05 be
       -0.17633387 -0.14911906 0.028139228 -0.13078304
000260 db ad 04 be 78 f8 99 bd f5 cb 64 bd b7 c5 f4 bc
       -0.12956946 -0.07518095 -0.05585857 -0.029879434
000270 39 80 0e 3e 04 a9 79 be 71 55 c2 3b a5 20 e5 bd
       0.139161 -0.2438088 0.0059305956 -0.11187867
000280 f7 71 b6 3d 57 c3 bb bd dd 61 3f 3d c3 dc 1f be
       0.08908456 -0.091681175 0.04672419 -0.15611558
000290 85 7d 6f 3d 31 48 04 bd 67 a4 c0 bd 47 3c a9 bc
       0.058469314 -0.03229541 -0.09406357 -0.020658625
0002a0 38 a2 39 3e 07 ea 8e bc a9 53 59 3d 60 ad 10 bd
       0.18128288 -0.017445577 0.0530583 -0.035321593
0002b0 89 21 b4 be 3a 66 76 3d f0 24 b4 3a 65 a3 1d be
       -0.35181835 0.060156085 0.0013743918 -0.15394361
0002c0 d6 13 c3 bd 45 6f ad bd f2 80 21 3d 1d 14 53 3e
       -0.09525268 -0.084684886 0.039429612 0.20613141
0002d0 68 db af 3d bc 4b 97 3d b4 c7 90 be cb 45 ba bd
       0.0858677 0.07387492 -0.2827736 -0.09095343
0002e0 0e b7 99 bd 88 3e c1 3a 4b 37 89 3d e9 98 2e be
       -0.07505618 0.0014743367 0.066999994 -0.17050518
0002f0 8f 4b 00 be 36 10 24 be 4b da dd bd 26 6a a4 bd
       -0.12528823 -0.16021809 -0.10832652 -0.08028059
000300 6c 87 cc bd b2 b4 77 bd 33 4b ac 3c 96 53 58 ba
       -0.09986767 -0.06047506 0.021031952 -0.00082522014
000310 ff c0 89 3d 65 6b 26 3b 92 61 49 be b9 1c 89 bb
       0.06726264 0.0025393602 -0.19666126 -0.004184332
000320 51 02 f4 bd f6 7c 0f 3d a3 d3 1d 3e 6e a2 3b bd
       -0.11914504 0.03503128 0.15412764 -0.045809202
000330 1f 90 dd 3d b9 4d e3 bc 2d 92 86 be 1e 1e 28 ba
       0.108185045 -0.027747022 -0.26283398 -0.0006413179
000340 ec 99 79 bd a0 cb 11 3d a6 f7 15 3e c8 b5 13 3d
       -0.060937807 0.035594583 0.14645252 0.036062032
000350 f7 be 8c bd b6 a3 55 be 81 ce c5 bc c5 81 31 3e
       -0.06872361 -0.20863232 -0.02414632 0.1733466
000360 d8 eb 80 be 1d 6d 46 be 6b c2 1a be 6d 0f 5e 3d
       -0.25179935 -0.19377561 -0.15113227 0.05421393
000370 b8 5a 1c be 66 fe 6c 3a 4a 1c 03 be 67 77 33 bd
       -0.15268981 0.0009040594 -0.1280376 -0.043815043
000380 7a f3 18 3d 8e b4 cc be 06 26 50 be ea 7e b7 bb
       0.037341572 -0.39981502 -0.20327005 -0.005599846
000390 22 51 96 bd eb 45 65 3e 2b 82 a9 be 38 3a 03 be
       -0.073396936 0.22389953 -0.33107123 -0.12815177
0003a0 09 e3 cd 3c e1 3d 1c be e6 96 15 3e 43 39 67 be
       0.025132673 -0.1525798 0.14608344 -0.22580437
0003b0 66 63 69 bd fa d0 fd bc 46 e4 16 be 31 0a 9a be
       -0.05697956 -0.030983437 -0.14735517 -0.300859
0003c0 e1 04 6b 3c cd f2 39 3b 47 ae fe bc c7 ef d8 be
       0.014344425 0.002837348 -0.031088961 -0.42370436
0003d0 02 01 1b be f5 53 7c bd 99 f8 ab bd cf 56 7a be
       -0.15137103 -0.061603505 -0.083970256 -0.24447177
0003e0 fc 7a 5f be 4c ec bb bc e6 f3 51 bc 24 ee 1f bd
       -0.21824259 -0.022939824 -0.012814498 -0.039045468
0003f0 77 68 9f be f4 9e f5 bb 9c ab 85 3d a6 39 ad 3d
       -0.31134388 -0.0074957553 0.065268725 0.08458261

arith.constant8 f4 [256]
000000 0b af 4e 3e 41 91 1e 3f 32 f7 9f 3e 6a 57 c8 3e
       0.20183961 0.6194039 0.31243283 0.39129192
000010 9a 81 39 3f dc 52 fa 3e 89 6e 2f 3f 8f 5d e8 3e
       0.7246338 0.48891342 0.6852804 0.4538388
000020 ee 53 6b 3f 89 65 4b 3f 8b db 74 3f 39 38 af 3d
       0.9192494 0.79451805 0.95647496 0.085556455
000030 5b 7d 65 3d ed 21 ef bd 0c c2 58 bd 9d e7 cc 3e
       0.05602775 -0.11676393 -0.052919433 0.40020457
000040 25 95 1c 3f a6 6d 05 3f d7 5d 1b 3f f7 40 ad 3e
       0.61165076 0.52120435 0.60690063 0.33838627
000050 29 fa 48 3f c2 b5 63 be da 16 35 3a f9 49 4c 3f
       0.78506714 -0.22237304 0.0006908007 0.79800373
000060 20 c3 84 3f 77 5d 89 3f c9 e5 7c 3e ad 95 a9 3e
       1.0372047 1.0731648 0.24697031 0.33122006
000070 d2 55 b0 3e 36 e8 59 3c 9d fd f6 3e a8 17 22 3f
       0.34440476 0.013299992 0.48240367 0.63317347
000080 a4 80 ec 3e 60 c3 0f be c8 2e b2 3d b7 85 c3 bc
       0.46191895 -0.14039373 0.08700329 -0.023867471
000090 a7 d6 3e 3d 09 ac 62 3f 0b 50 67 bd d5 f6 21 3e
       0.046591427 0.88543755 -0.05647282 0.15816815
0000a0 36 b5 a8 3e 7a ef e5 3e 47 2e d6 3e 85 be da 3e
       0.32950753 0.4490927 0.41832182 0.4272348
0000b0 2b 08 bc be d0 84 a8 3e a1 97 c1 3e 2a e4 d3 3e
       -0.36724982 0.32913828 0.37810996 0.41385013
0000c0 01 d9 d7 3c a5 53 e9 3e e1 30 2c bd 93 79 3b 3f
       0.026348593 0.45571628 -0.042038802 0.7323238
0000d0 9a ff e1 3e ca 5c 1e bd 3f 29 c6 3c 9e 9c 41 3f
       0.4414032 -0.03866271 0.02418959 0.75629604
0000e0 7d 3b 46 3e 52 06 08 bd 11 2b ad 3e f5 43 a8 bc
       0.1935863 -0.033209153 0.3382192 -0.020540217
0000f0 78 d7 45 3f 26 6c 73 3e e4 93 0d 3f 3e 63 0d be
       0.77281904 0.23771724 0.5530379 -0.13807389
000100 bf 95 6d 3f 44 ad f1 3e 4b 7d d5 3e ec 14 34 bd
       0.9280662 0.47202504 0.41697153 -0.043965265
000110 65 92 43 3e 88 27 2d 3f 6e e9 b6 3c 47 31 45 3e
       0.19098814 0.67638445 0.022328105 0.19257079
000120 63 1b 16 3f 4a a9 f6 3d e4 8a 35 3e d4 c5 03 3f
       0.5863554 0.12044008 0.17728764 0.51473737
000130 8b c5 6f 3f 04 6c 8e 3b 50 c4 85 3e 10 a8 81 3e
       0.936608 0.0043463726 0.26126337 0.25323534
000140 d5 9a 17 3f b1 49 6b 3e 93 09 88 be 3f d5 0e 3f
       0.5922063 0.2297733 -0.26569805 0.5579414
000150 b2 3a 24 3f 1c 5f a3 3e c0 68 9b 3d 1e 12 80 3d
       0.6415206 0.319085 0.07588339 0.062534556
000160 ab 42 3d 3f 80 68 0b be 62 ab 7a 3f f7 d1 03 3f
       0.7392985 -0.13614082 0.9791776 0.51492256
000170 f3 d6 e5 3d 5f 9e 77 3f 46 28 95 3e 92 7e c7 be
       0.11222639 0.9672603 0.2913229 -0.38963753
000180 72 fa 4d 3f cf 13 ec 3e 78 c3 15 3d 5b 39 b0 be
       0.80460274 0.46108863 0.036563367 -0.3441876
000190 95 8a f4 3d 5f c0 29 3f c4 61 c6 3e d6 60 c5 3e
       0.11940495 0.6630916 0.38746464 0.38550442
0001a0 fa 48 6b bc 53 75 3c 3f 79 c8 e8 3e 13 2a bc 3e
       -0.014360661 0.7361652 0.45465448 0.3675085
0001b0 4c 3d 10 3f 99 06 3f 3e 3e 32 27 be 5f 34 53 be
       0.5634353 0.1865486 -0.1632776 -0.20625447
0001c0 e6 63 09 3e cc ba b6 3e 57 47 e9 3e 5e 97 c7 3e
       0.13417014 0.3568939 0.4556224 0.38982671
0001d0 18 ae 3a be b2 d3 21 3f 27 8b c9 3e 7f 72 e3 bd
       -0.18230474 0.63213646 0.39363977 -0.11105823
0001e0 4a ce 69 3c 3f f0 e7 bd d4 16 0e 3e 42 4c 0a 3f
       0.014270375 -0.1132512 0.13875896 0.5402261
0001f0 26 e2 06 3f 9e c8 53 3f 0d 0a 71 3c a2 44 09 3e
       0.52688825 0.8272799 0.014711869 0.13405088
000200 65 65 28 3f a1 f8 88 3e 08 60 d0 3d 0b a3 13 3f
       0.65779716 0.2675219 0.101745665 0.5767066
000210 c2 90 1f 3f 3b 11 37 3f 6a b8 17 3f 66 de 1a 3f
       0.6233026 0.71510667 0.5926577 0.60495603
000220 9a af 14 be 94 77 13 3f 3e 3a c1 be 50 f1 d0 3d
       -0.14520112 0.57604337 -0.37739748 0.10202277
000230 aa 04 da bd 8b 6c 88 3f 71 fe 0d 3f 6a 3e a0 3e
       -0.10645421 1.0658125 0.5546637 0.31297618
000240 12 47 92 3d 30 e8 09 3f 74 75 a4 3e 7e 72 12 3f
       0.07142462 0.53869915 0.3212086 0.5720595
000250 6c 9f 83 3f f7 99 46 3e 98 eb 22 3f d9 c2 62 3f
       1.0283027 0.1939467 0.6364074 0.88578564
000260 16 16 32 3f 52 07 3b 3e 04 1d 20 3e a9 a1 cc 3e
       0.6956495 0.18264511 0.15636069 0.39967087
000270 1c 06 65 3f cb 3e 3f 3e d5 0a 48 3f ff bb e5 3d
       0.8946245 0.18676297 0.7814153 0.11217498
000280 2d 9d 5e 3e e6 86 40 3f c2 51 36 3f 56 ff b3 3e
       0.21739645 0.7520584 0.712185 0.35155743
000290 d1 82 66 3e 9b c8 ef 3d 99 30 ac 3e 58 f5 10 3f
       0.2251084 0.11708184 0.33630827 0.56624365
0002a0 50 eb cd 3e 04 6e 08 bd a8 8f b6 3e e9 3d 65 3e
       0.40218592 -0.033308044 0.35656476 0.22386898
0002b0 be 9e e7 3e 1c 38 ce 3e f4 3b 44 3d 0d d4 eb 3e
       0.45238298 0.40277183 0.04790874 0.4606022
0002c0 d0 bf 52 3f 14 e5 34 3f 9e 65 8b 3e a4 45 bf 3e
       0.8232393 0.70662045 0.27225965 0.3735782
0002d0 6d 58 2a 3f 9b fc 71 3f 5e a1 89 3e 9a 4a 6d 3e
       0.6654118 0.9452607 0.26880926 0.2317299
0002e0 38 c2 a8 3f 44 46 3e 3f c3 3a 06 3e 05 a6 8f bd
       1.3184271 0.74325967 0.13108353 -0.070140876
0002f0 70 f5 96 3e dc d7 03 3f d9 21 91 3e 6b 33 80 bd
       0.2948413 0.5150125 0.28346136 -0.06259807
000300 0c 86 be bd 4d 95 99 3e 5e e6 fa 3b ab 15 bd 3e
       -0.09302911 0.2999672 0.0076568564 0.36930594
000310 fb f1 36 3f 80 49 9b bd 51 8f f1 3e 26 f1 88 be
       0.7146298 -0.075823784 0.47179654 -0.26746482
000320 84 70 04 3f 3d 12 64 3f bc 9a 79 3e 90 c8 0c 3d
       0.51734185 0.8909033 0.24375433 0.03437096
000330 4c ea 02 be 0d 8e 92 3c dd 92 21 3f 19 5d 9e 3e
       -0.1278469 0.01789 0.6311472 0.30930403
000340 8b 5e 32 3f 7a c0 c7 3e 6e a1 75 3f 93 e3 e8 3d
       0.6967551 0.39014035 0.9594945 0.11371531
000350 47 2a a0 3f d2 78 7f 3f 32 59 4f 3f 81 d9 34 3f
       1.2512902 0.9979373 0.80995476 0.70644385
000360 c7 28 1a 3f 8b b9 ba 3e 69 5f 20 3f d0 67 04 3f
       0.6021847 0.36469683 0.62645584 0.51720905
000370 88 18 68 3f 44 45 a1 3e 2a 20 88 3e d2 11 be 3e
       0.9066243 0.31498158 0.2658704 0.3712297
000380 09 7f 65 3f 6a 32 bf 3e 13 2f b1 3e e1 5e a2 3d
       0.89646965 0.3734315 0.34606227 0.07928253
000390 e8 cf 96 3f dd 35 a8 3e f5 04 0b 3f fa 2b 27 3f
       1.1782198 0.32853594 0.5430444 0.6530148
0003a0 4f 8d 7c 3f 4e f2 de 3e 81 42 8b 3e 71 1c ae 3d
       0.9865312 0.4354424 0.27199176 0.085015185
0003b0 59 45 74 3f b0 a4 16 3f c9 28 94 3e eb a2 46 3f
       0.95418316 0.58845043 0.28937367 0.77592343
0003c0 72 0c e8 3e a0 35 60 3e 05 07 31 ba 22 9d 3d 3e
       0.45321995 0.21895456 -0.000675306 0.18516973
0003d0 41 82 a0 3e 55 fc 21 3e cb 10 21 bd 0c fc 84 3e
       0.31349376 0.15818913 -0.039322656 0.25973547
0003e0 ea 75 59 bb fb 5f a4 3e 95 fb 90 3e 9a 6b 35 3f
       -0.0033181855 0.32104477 0.28316942 0.7086731
0003f0 ab 29 80 be 72 c1 a9 3e 37 2d f4 3e b3 78 aa 3f
       -0.2503179 0.331554 0.47690746 1.3318084

arith.constant9 f4 [43]
000000 36 18 69 bf 9d 9c 04 be 61 8a 8f be 0c 16 42 3e
       -0.9105257 -0.12950368 -0.28035262 0.18953723
000010 76 05 c9 3d c7 5f 1d 3f d2 c0 de 3e b5 c0 6d be
       0.09815495 0.6147427 0.43506485 -0.23218043
000020 85 b2 38 3f c3 3f bd 3d 5e ee 80 3e 27 9a 33 bd
       0.721474 0.09240677 0.2518186 -0.043848183
000030 18 1d 7e be ba 8d 93 bd 59 fb 67 be ca 46 44 3e
       -0.24815786 -0.072047666 -0.22654475 0.19167629
000040 90 fe 2a bf af 56 ea be f4 67 62 be 5d 72 fb be
       -0.6679468 -0.4576926 -0.22109967 -0.4911069
000050 89 45 d3 3e e4 11 83 be 9b 19 49 bf 7f ca 76 be
       0.4126399 -0.25599587 -0.78554696 -0.24100684
000060 e1 46 28 be 8a f2 2b 3e 0d 06 a7 3e 4d eb 75 be
       -0.16433288 0.1679174 0.32621804 -0.24015541
000070 dc fd 4d 3e a4 e5 f8 3d 0d 0f fd 3e 41 18 87 3e
       0.20116371 0.121531755 0.49425545 0.26385692
000080 0a 71 85 3d da e2 8e be 79 56 b5 be b7 92 98 bd
       0.06515701 -0.2790745 -0.35417536 -0.07449859
000090 ca e7 b5 3d a6 9f de be 5c 4d 3a 3e 5f 2c 1c bf
       0.08882101 -0.43481177 0.18193573 -0.61005205
0000a0 d9 27 9d 3e 41 e3 fa be c6 7c 5b be
       0.30694464 -0.49001506 -0.21434316
