optimized_model.tflite (tflite, 122856 bytes, 12 tensors)

arith.constant f4 [32]
0	0xbcad620d	-0.021164918
1	0x3cda0023	0.026611393
2	0x3f2a0514	0.66414
3	0x3f983daa	1.1893818
4	0xbd185824	-0.037193432
5	0xbd8ae859	-0.06782598
6	0xbd3e78ef	-0.04650205
7	0x3ec74d3d	0.38926116
8	0x3f89e763	1.0773739
9	0xbd00be94	-0.03143175
10	0xbc1fcba1	-0.009753139
11	0xbdc3830c	-0.095464796
12	0x3f96324a	1.1734097
13	0xbd57cfe9	-0.052688513
14	0xbd5ebc7a	-0.054378964
15	0x3e4414a2	0.19148496
16	0xbcdc35cf	-0.026881127
17	0xbdb8e9c8	-0.09028965
18	0x3ce4b2eb	0.027917346
19	0xbd98020f	-0.07422268
20	0x3f28e968	0.6598115
21	0x3f2f4974	0.68471456
22	0xbca5e3c7	-0.020250214
23	0xbcb896d2	-0.022532854
24	0xbc4462ce	-0.0119864475
25	0x3efcc8de	0.49372
26	0xbd1b1028	-0.037857205
27	0xbeacd1bb	-0.33753762
28	0xbc59f636	-0.01330333
29	0x3b197ec9	0.0023421517
30	0x3d3fe359	0.046847675
31	0xbc939d62	-0.018019382

arith.constant2 f4 [43]
0	0xbf691836	-0.9105257
1	0xbe049c9d	-0.12950368
2	0xbe8f8a61	-0.28035262
3	0x3e42160c	0.18953723
4	0x3dc90576	0.09815495
5	0x3f1d5fc7	0.6147427
6	0x3edec0d2	0.43506485
7	0xbe6dc0b5	-0.23218043
8	0x3f38b285	0.721474
9	0x3dbd3fc3	0.09240677
10	0x3e80ee5e	0.2518186
11	0xbd339a27	-0.043848183
12	0xbe7e1d18	-0.24815786
13	0xbd938dba	-0.072047666
14	0xbe67fb59	-0.22654475
15	0x3e4446ca	0.19167629
16	0xbf2afe90	-0.6679468
17	0xbeea56af	-0.4576926
18	0xbe6267f4	-0.22109967
19	0xbefb725d	-0.4911069
20	0x3ed34589	0.4126399
21	0xbe8311e4	-0.25599587
22	0xbf49199b	-0.78554696
23	0xbe76ca7f	-0.24100684
24	0xbe2846e1	-0.16433288
25	0x3e2bf28a	0.1679174
26	0x3ea7060d	0.32621804
27	0xbe75eb4d	-0.24015541
28	0x3e4dfddc	0.20116371
29	0x3df8e5a4	0.121531755
30	0x3efd0f0d	0.49425545
31	0x3e871841	0.26385692
32	0x3d85710a	0.06515701
33	0xbe8ee2da	-0.2790745
34	0xbeb55679	-0.35417536
35	0xbd9892b7	-0.07449859
36	0x3db5e7ca	0.08882101
37	0xbede9fa6	-0.43481177
38	0x3e3a4d5c	0.18193573
39	0xbf1c2c5f	-0.61005205
40	0x3e9d27d9	0.30694464
41	0xbefae341	-0.49001506
42	0xbe5b7cc6	-0.21434316

arith.constant3 f4 [256]
0	0x3e4eaf0b	0.20183961
1	0x3f1e9141	0.6194039
2	0x3e9ff732	0.31243283
3	0x3ec8576a	0.39129192
4	0x3f39819a	0.7246338
5	0x3efa52dc	0.48891342
6	0x3f2f6e89	0.6852804
7	0x3ee85d8f	0.4538388
8	0x3f6b53ee	0.9192494
9	0x3f4b6589	0.79451805
10	0x3f74db8b	0.95647496
11	0x3daf3839	0.085556455
12	0x3d657d5b	0.05602775
13	0xbdef21ed	-0.11676393
14	0xbd58c20c	-0.052919433
15	0x3ecce79d	0.40020457
16	0x3f1c9525	0.61165076
17	0x3f056da6	0.52120435
18	0x3f1b5dd7	0.60690063
19	0x3ead40f7	0.33838627
20	0x3f48fa29	0.78506714
21	0xbe63b5c2	-0.22237304
22	0x3a3516da	0.0006908007
23	0x3f4c49f9	0.79800373
24	0x3f84c320	1.0372047
25	0x3f895d77	1.0731648
26	0x3e7ce5c9	0.24697031
27	0x3ea995ad	0.33122006
28	0x3eb055d2	0.34440476
29	0x3c59e836	0.013299992
30	0x3ef6fd9d	0.48240367
31	0x3f2217a8	0.63317347
32	0x3eec80a4	0.46191895
33	0xbe0fc360	-0.14039373
34	0x3db22ec8	0.08700329
35	0xbcc385b7	-0.023867471
36	0x3d3ed6a7	0.046591427
37	0x3f62ac09	0.88543755
38	0xbd67500b	-0.05647282
39	0x3e21f6d5	0.15816815
40	0x3ea8b536	0.32950753
41	0x3ee5ef7a	0.4490927
42	0x3ed62e47	0.41832182
43	0x3edabe85	0.4272348
44	0xbebc082b	-0.36724982
45	0x3ea884d0	0.32913828
46	0x3ec197a1	0.37810996
47	0x3ed3e42a	0.41385013
48	0x3cd7d901	0.026348593
49	0x3ee953a5	0.45571628
50	0xbd2c30e1	-0.042038802
51	0x3f3b7993	0.7323238
52	0x3ee1ff9a	0.4414032
53	0xbd1e5cca	-0.03866271
54	0x3cc6293f	0.02418959
55	0x3f419c9e	0.75629604
56	0x3e463b7d	0.1935863
57	0xbd080652	-0.033209153
58	0x3ead2b11	0.3382192
59	0xbca843f5	-0.020540217
60	0x3f45d778	0.77281904
61	0x3e736c26	0.23771724
62	0x3f0d93e4	0.5530379
63	0xbe0d633e	-0.13807389
64	0x3f6d95bf	0.9280662
65	0x3ef1ad44	0.47202504
66	0x3ed57d4b	0.41697153
67	0xbd3414ec	-0.043965265
68	0x3e439265	0.19098814
69	0x3f2d2788	0.67638445
70	0x3cb6e96e	0.022328105
71	0x3e453147	0.19257079
72	0x3f161b63	0.5863554
73	0x3df6a94a	0.12044008
74	0x3e358ae4	0.17728764
75	0x3f03c5d4	0.51473737
76	0x3f6fc58b	0.936608
77	0x3b8e6c04	0.0043463726
78	0x3e85c450	0.26126337
79	0x3e81a810	0.25323534
80	0x3f179ad5	0.5922063
81	0x3e6b49b1	0.2297733
82	0xbe880993	-0.26569805
83	0x3f0ed53f	0.5579414
84	0x3f243ab2	0.6415206
85	0x3ea35f1c	0.319085
86	0x3d9b68c0	0.07588339
87	0x3d80121e	0.062534556
88	0x3f3d42ab	0.7392985
89	0xbe0b6880	-0.13614082
90	0x3f7aab62	0.9791776
91	0x3f03d1f7	0.51492256
92	0x3de5d6f3	0.11222639
93	0x3f779e5f	0.9672603
94	0x3e952846	0.2913229
95	0xbec77e92	-0.38963753
96	0x3f4dfa72	0.80460274
97	0x3eec13cf	0.46108863
98	0x3d15c378	0.036563367
99	0xbeb0395b	-0.3441876
100	0x3df48a95	0.11940495
101	0x3f29c05f	0.6630916
102	0x3ec661c4	0.38746464
103	0x3ec560d6	0.38550442
104	0xbc6b48fa	-0.014360661
105	0x3f3c7553	0.7361652
106	0x3ee8c879	0.45465448
107	0x3ebc2a13	0.3675085
108	0x3f103d4c	0.5634353
109	0x3e3f0699	0.1865486
110	0xbe27323e	-0.1632776
111	0xbe53345f	-0.20625447
112	0x3e0963e6	0.13417014
113	0x3eb6bacc	0.3568939
114	0x3ee94757	0.4556224
115	0x3ec7975e	0.38982671
116	0xbe3aae18	-0.18230474
117	0x3f21d3b2	0.63213646
118	0x3ec98b27	0.39363977
119	0xbde3727f	-0.11105823
120	0x3c69ce4a	0.014270375
121	0xbde7f03f	-0.1132512
122	0x3e0e16d4	0.13875896
123	0x3f0a4c42	0.5402261
124	0x3f06e226	0.52688825
125	0x3f53c89e	0.8272799
126	0x3c710a0d	0.014711869
127	0x3e0944a2	0.13405088
128	0x3f286565	0.65779716
129	0x3e88f8a1	0.2675219
130	0x3dd06008	0.101745665
131	0x3f13a30b	0.5767066
132	0x3f1f90c2	0.6233026
133	0x3f37113b	0.71510667
134	0x3f17b86a	0.5926577
135	0x3f1ade66	0.60495603
136	0xbe14af9a	-0.14520112
137	0x3f137794	0.57604337
138	0xbec13a3e	-0.37739748
139	0x3dd0f150	0.10202277
140	0xbdda04aa	-0.10645421
141	0x3f886c8b	1.0658125
142	0x3f0dfe71	0.5546637
143	0x3ea03e6a	0.31297618
144	0x3d924712	0.07142462
145	0x3f09e830	0.53869915
146	0x3ea47574	0.3212086
147	0x3f12727e	0.5720595
148	0x3f839f6c	1.0283027
149	0x3e4699f7	0.1939467
150	0x3f22eb98	0.6364074
151	0x3f62c2d9	0.88578564
152	0x3f321616	0.6956495
153	0x3e3b0752	0.18264511
154	0x3e201d04	0.15636069
155	0x3ecca1a9	0.39967087
156	0x3f65061c	0.8946245
157	0x3e3f3ecb	0.18676297
158	0x3f480ad5	0.7814153
159	0x3de5bbff	0.11217498
160	0x3e5e9d2d	0.21739645
161	0x3f4086e6	0.7520584
162	0x3f3651c2	0.712185
163	0x3eb3ff56	0.35155743
164	0x3e6682d1	0.2251084
165	0x3defc89b	0.11708184
166	0x3eac3099	0.33630827
167	0x3f10f558	0.56624365
168	0x3ecdeb50	0.40218592
169	0xbd086e04	-0.033308044
170	0x3eb68fa8	0.35656476
171	0x3e653de9	0.22386898
172	0x3ee79ebe	0.45238298
173	0x3ece381c	0.40277183
174	0x3d443bf4	0.04790874
175	0x3eebd40d	0.4606022
176	0x3f52bfd0	0.8232393
177	0x3f34e514	0.70662045
178	0x3e8b659e	0.27225965
179	0x3ebf45a4	0.3735782
180	0x3f2a586d	0.6654118
181	0x3f71fc9b	0.9452607
182	0x3e89a15e	0.26880926
183	0x3e6d4a9a	0.2317299
184	0x3fa8c238	1.3184271
185	0x3f3e4644	0.74325967
186	0x3e063ac3	0.13108353
187	0xbd8fa605	-0.070140876
188	0x3e96f570	0.2948413
189	0x3f03d7dc	0.5150125
190	0x3e9121d9	0.28346136
191	0xbd80336b	-0.06259807
192	0xbdbe860c	-0.09302911
193	0x3e99954d	0.2999672
194	0x3bfae65e	0.0076568564
195	0x3ebd15ab	0.36930594
196	0x3f36f1fb	0.7146298
197	0xbd9b4980	-0.075823784
198	0x3ef18f51	0.47179654
199	0xbe88f126	-0.26746482
200	0x3f047084	0.51734185
201	0x3f64123d	0.8909033
202	0x3e799abc	0.24375433
203	0x3d0cc890	0.03437096
204	0xbe02ea4c	-0.1278469
205	0x3c928e0d	0.01789
206	0x3f2192dd	0.6311472
207	0x3e9e5d19	0.30930403
208	0x3f325e8b	0.6967551
209	0x3ec7c07a	0.39014035
210	0x3f75a16e	0.9594945
211	0x3de8e393	0.11371531
212	0x3fa02a47	1.2512902
213	0x3f7f78d2	0.9979373
214	0x3f4f5932	0.80995476
215	0x3f34d981	0.70644385
216	0x3f1a28c7	0.6021847
217	0x3ebab98b	0.36469683
218	0x3f205f69	0.62645584
219	0x3f0467d0	0.51720905
220	0x3f681888	0.9066243
221	0x3ea14544	0.31498158
222	0x3e88202a	0.2658704
223	0x3ebe11d2	0.3712297
224	0x3f657f09	0.89646965
225	0x3ebf326a	0.3734315
226	0x3eb12f13	0.34606227
227	0x3da25ee1	0.07928253
228	0x3f96cfe8	1.1782198
229	0x3ea835dd	0.32853594
230	0x3f0b04f5	0.5430444
231	0x3f272bfa	0.6530148
232	0x3f7c8d4f	0.9865312
233	0x3edef24e	0.4354424
234	0x3e8b4281	0.27199176
235	0x3dae1c71	0.085015185
236	0x3f744559	0.95418316
237	0x3f16a4b0	0.58845043
238	0x3e9428c9	0.28937367
239	0x3f46a2eb	0.77592343
240	0x3ee80c72	0.45321995
241	0x3e6035a0	0.21895456
242	0xba310705	-0.000675306
243	0x3e3d9d22	0.18516973
244	0x3ea08241	0.31349376
245	0x3e21fc55	0.15818913
246	0xbd2110cb	-0.039322656
247	0x3e84fc0c	0.25973547
248	0xbb5975ea	-0.0033181855
249	0x3ea45ffb	0.32104477
250	0x3e90fb95	0.28316942
251	0x3f356b9a	0.7086731
252	0xbe8029ab	-0.2503179
253	0x3ea9c172	0.331554
254	0x3ef42d37	0.47690746
255	0x3faa78b3	1.3318084

arith.constant4 f4 [64]
0	0xbfa35bd4	-1.2762399
1	0xbe8aa654	-0.27080023
2	0xbf3d2d36	-0.7389711
3	0x3f1f9430	0.6233549
4	0x3f6463fb	0.8921506
5	0x3e1c7ef5	0.15282805
6	0x3e00d5bc	0.12581533
7	0x3e58441d	0.21119733
8	0x3e6a8e5c	0.22905868
9	0xbf9b7633	-1.2145447
10	0x3f38cf71	0.7219153
11	0xbde0dc50	-0.10979521
12	0xbe9f515f	-0.3111677
13	0xbf8aa209	-1.0830699
14	0xbef46c12	-0.477387
15	0xba9a5b7b	-0.0011776531
16	0x3f2aca0d	0.66714555
17	0x3d32db4d	0.043666173
18	0x3f05f99a	0.52333987
19	0x3f115cac	0.5678203
20	0xbe88f18a	-0.2674678
21	0xbf9bc666	-1.2169921
22	0x3eb4920c	0.35267675
23	0x3f1d2f64	0.6140044
24	0x3ef64a0f	0.48103377
25	0x3e9a5c7e	0.3014869
26	0x3f194883	0.5987627
27	0xbce44054	-0.027862705
28	0x3eab8f8c	0.33507955
29	0xbf0e7af9	-0.5565639
30	0xbd4796c4	-0.048727766
31	0x3e3966b3	0.18105583
32	0x3f027832	0.50964653
33	0xbdabd8ae	-0.08390938
34	0x3e7d5a1b	0.24741404
35	0x3eb61123	0.3555995
36	0xbe3599a8	-0.17734396
37	0x3e48842c	0.1958167
38	0xbeea98c7	-0.45819685
39	0xbdd813ec	-0.10550675
40	0x3f02565f	0.5091304
41	0x3f039351	0.5139666
42	0x3f81f4b1	1.0152799
43	0xbdb9ccb9	-0.09072251
44	0x3e8f7eb5	0.28026357
45	0xbe9cbf0b	-0.30614504
46	0x3eeaae39	0.45836046
47	0x3f81ae96	1.0131404
48	0x3f01c979	0.5069805
49	0xbe62f8cf	-0.22165225
50	0xbe3b0594	-0.18263847
51	0xbd1f3a11	-0.038873736
52	0x3e908c7e	0.28232187
53	0x3e5ca15d	0.2154593
54	0xbef233ed	-0.4730524
55	0x3f1a9095	0.60376865
56	0x3e9892d4	0.2979952
57	0x3ef5d287	0.48012182
58	0xbec92316	-0.3928458
59	0x3f960fff	1.1723632
60	0x3e98c43d	0.29837218
61	0x3eb8eb44	0.36116993
62	0x3e8bb72e	0.27288193
63	0xbc9cb885	-0.019130955

arith.constant5 f4 [64]
0	0x3e583178	0.21112621
1	0x3f5575d8	0.8338294
2	0x3edc65cb	0.43046412
3	0x3ee1d14b	0.4410499
4	0x3f0df515	0.5545209
5	0x3e8d2d7c	0.27573764
6	0x3e36e81d	0.17861982
7	0x3fc232ee	1.5171793
8	0x3f42812e	0.7597836
9	0xbfb135a9	-1.3844501
10	0x3f914997	1.1350583
11	0x3ed89ab1	0.4230552
12	0x3fd4307c	1.6577296
13	0xbe8bd161	-0.2730818
14	0x3e75dcc4	0.24009997
15	0xbd9c19a2	-0.076220766
16	0x3e8175e4	0.25285256
17	0x3f4a361a	0.789888
18	0x3f4e821d	0.8066729
19	0xbf385543	-0.720051
20	0xbe274e72	-0.16338518
21	0x3f89fd7e	1.0780485
22	0x3f74f75b	0.95689934
23	0xbf013076	-0.5046457
24	0xbe3ee071	-0.18640305
25	0x3da6be88	0.0814181
26	0xbfcead91	-1.6146718
27	0xbf3521d4	-0.7075474
28	0x3e9cad55	0.30600992
29	0x3ee052cb	0.43813166
30	0x3f33f185	0.70290405
31	0x3e52a33e	0.20570084
32	0x3f85843b	1.0430979
33	0x3f54e531	0.8316222
34	0xbe927b15	-0.2860953
35	0x3ed618b2	0.41815716
36	0x3e8ef932	0.27924496
37	0x3e9e2cc7	0.30893537
38	0x3eb32790	0.3499112
39	0x3f52acf4	0.82295156
40	0xbf929104	-1.1450505
41	0x3e27e2cf	0.16395114
42	0xbf13866f	-0.57627004
43	0x3df16cc5	0.11788324
44	0xbca12c4d	-0.019674445
45	0x3ba75cd1	0.0051075
46	0xbecd9cca	-0.40158683
47	0xbdd2d0f8	-0.10293764
48	0x3ead3b24	0.33834183
49	0x3e4e00cf	0.20117496
50	0x3dd5a9c0	0.10432768
51	0xbf1129c0	-0.5670433
52	0xbe8f393d	-0.27973357
53	0x3e69e1b4	0.22840005
54	0x3edb06a8	0.42778516
55	0x3f84b4a9	1.0367633
56	0x3fbc12ae	1.46932
57	0x3f227131	0.63453966
58	0x3f3ec922	0.74525654
59	0x3ec66ace	0.3875336
60	0x3e79abac	0.24381894
61	0xbcbcb801	-0.023036959
62	0x3f2c824b	0.6738631
63	0x3faf6f86	1.3705909

arith.constant6 f4 [32]
0	0xbbf02aad	-0.007329306
1	0xbfc50bbe	-1.5394208
2	0xbe525814	-0.20541412
3	0x3ca940f3	0.020660853
4	0xbe8b3c8d	-0.27194634
5	0x3dfd0d4f	0.12356054
6	0xbe620248	-0.22071183
7	0x3f80feba	1.0077736
8	0x3e41ed49	0.18938173
9	0x3f33564f	0.7005357
10	0xbedc9f7d	-0.4309043
11	0xbe63a6d6	-0.22231612
12	0x3d31e84f	0.043434437
13	0x3e3e7455	0.18599065
14	0x3fbcf61a	1.4762604
15	0xbf29ac8b	-0.66278905
16	0x3eb9b8bc	0.36273754
17	0xbf2c8007	-0.67382854
18	0x3eae7dd5	0.34080377
19	0x3f325278	0.6965709
20	0xbf95c510	-1.1700764
21	0xbd6cbb89	-0.057796035
22	0xbcf13c8c	-0.029447816
23	0x3dbee9b8	0.09321922
24	0x3f361bc8	0.7113614
25	0x3e80ad69	0.251323
26	0x3ed89f17	0.42308876
27	0xbe86be42	-0.2631703
28	0xbe93cb7c	-0.28866184
29	0xbe549b46	-0.20762357
30	0x3f390dea	0.72286856
31	0xbea957d4	-0.3307482

tfl.pseudo_qconst i1 [64, 3, 3, 64]
0	0x05	5
1	0x03	3
2	0x3c	60
3	0xe0	-32
4	0x32	50
5	0x08	8
6	0x0c	12
7	0xf8	-8
8	0x07	7
9	0xdf	-33
10	0xc3	-61
11	0xe0	-32
12	0xee	-18
13	0x08	8
14	0xec	-20
15	0xe3	-29
16	0x0a	10
17	0x10	16
18	0xf7	-9
19	0x01	1
20	0x10	16
21	0xf9	-7
22	0xf7	-9
23	0x2d	45
24	0xd5	-43
25	0xfc	-4
26	0x2c	44
27	0xf8	-8
28	0x0a	10
29	0xfa	-6
30	0xd3	-45
31	0xd1	-47
32	0x17	23
33	0xf5	-11
34	0x28	40
35	0x04	4
36	0xfc	-4
37	0xed	-19
38	0xe5	-27
39	0x16	22
40	0xea	-22
41	0x1d	29
42	0xfd	-3
43	0xf0	-16
44	0x00	0
45	0x0f	15
46	0xf6	-10
47	0x40	64
48	0xf3	-13
49	0xe6	-26
50	0xdc	-36
51	0xf6	-10
52	0x0f	15
53	0x19	25
54	0xf3	-13
55	0xbb	-69
56	0xe4	-28
57	0xed	-19
58	0xde	-34
59	0x26	38
60	0xd0	-48
61	0x0c	12
62	0xfa	-6
63	0xf9	-7
64	0xf7	-9
65	0x36	54
66	0x14	20
67	0x22	34
68	0x05	5
69	0xf9	-7
70	0xc0	-64
71	0xcb	-53
72	0x10	16
73	0x32	50
74	0xff	-1
75	0x0a	10
76	0x35	53
77	0xe1	-31
78	0xba	-70
79	0x01	1
80	0xf9	-7
81	0xbb	-69
82	0xe7	-25
83	0xb2	-78
84	0xd2	-46
85	0x15	21
86	0xf2	-14
87	0xea	-22
88	0xea	-22
89	0x06	6
90	0xf5	-11
91	0xc8	-56
92	0x08	8
93	0xb4	-76
94	0xca	-54
95	0xc7	-57
96	0x0d	13
97	0x03	3
98	0x07	7
99	0xff	-1
100	0xf7	-9
101	0xfd	-3
102	0xb7	-73
103	0x1b	27
104	0x15	21
105	0xc1	-63
106	0x06	6
107	0x18	24
108	0x14	20
109	0x05	5
110	0xf9	-7
111	0x01	1
112	0xed	-19
113	0xbc	-68
114	0xf4	-12
115	0x3c	60
116	0xbc	-68
117	0x06	6
118	0x07	7
119	0x00	0
120	0xb8	-72
121	0x29	41
122	0xea	-22
123	0x1c	28
124	0x0d	13
125	0xfe	-2
126	0xc4	-60
127	0x13	19
128	0xfe	-2
129	0xfb	-5
130	0x37	55
131	0x13	19
132	0xdc	-36
133	0x08	8
134	0xca	-54
135	0x96	-106
136	0xad	-83
137	0xec	-20
138	0xdd	-35
139	0x01	1
140	0xc2	-62
141	0xec	-20
142	0xf1	-15
143	0xd9	-39
144	0x38	56
145	0xe3	-29
146	0xa2	-94
147	0xf3	-13
148	0xeb	-21
149	0xd2	-46
150	0x0d	13
151	0xd3	-45
152	0xbc	-68
153	0x16	22
154	0xf7	-9
155	0xd0	-48
156	0xe8	-24
157	0xec	-20
158	0x3b	59
159	0xfd	-3
160	0xee	-18
161	0xc1	-63
162	0xc0	-64
163	0xed	-19
164	0xd1	-47
165	0xf1	-15
166	0xf7	-9
167	0x0f	15
168	0x03	3
169	0xfe	-2
170	0xe3	-29
171	0xfe	-2
172	0x33	51
173	0x03	3
174	0x15	21
175	0xb9	-71
176	0xee	-18
177	0x0b	11
178	0x0a	10
179	0x1f	31
180	0xf0	-16
181	0x14	20
182	0xec	-20
183	0x04	4
184	0xba	-70
185	0xdd	-35
186	0xd9	-39
187	0x0b	11
188	0x2c	44
189	0xb0	-80
190	0xd4	-44
191	0xdd	-35
192	0xcc	-52
193	0xc4	-60
194	0xf6	-10
195	0xce	-50
196	0x07	7
197	0x06	6
198	0xe8	-24
199	0xf3	-13
200	0xa3	-93
201	0x32	50
202	0x1f	31
203	0x02	2
204	0x56	86
205	0xfd	-3
206	0xd7	-41
207	0xd3	-45
208	0xf2	-14
209	0x25	37
210	0xd6	-42
211	0x13	19
212	0x15	21
213	0xef	-17
214	0x58	88
215	0x39	57
216	0xf6	-10
217	0x07	7
218	0xdc	-36
219	0x33	51
220	0x00	0
221	0xed	-19
222	0xdf	-33
223	0xec	-20
224	0xd9	-39
225	0xdd	-35
226	0x20	32
227	0xe9	-23
228	0xfb	-5
229	0xf3	-13
230	0x00	0
231	0xf5	-11
232	0x12	18
233	0xe7	-25
234	0xf2	-14
235	0xd8	-40
236	0x2b	43
237	0xef	-17
238	0x05	5
239	0x1e	30
240	0xe4	-28
241	0xd4	-44
242	0x14	20
243	0xf5	-11
244	0xdc	-36
245	0xd3	-45
246	0x0d	13
247	0xf0	-16
248	0xde	-34
249	0xec	-20
250	0x8c	-116
251	0x09	9
252	0xe0	-32
253	0x08	8
254	0xc1	-63
255	0xbf	-65

tfl.pseudo_qconst1 i1 [64, 3, 3, 32]
0	0x14	20
1	0xe6	-26
2	0x1f	31
3	0xe9	-23
4	0xce	-50
5	0x25	37
6	0x3b	59
7	0xd4	-44
8	0xc5	-59
9	0x0b	11
10	0xf1	-15
11	0x08	8
12	0x07	7
13	0x04	4
14	0x09	9
15	0x15	21
16	0x2f	47
17	0xe2	-30
18	0x05	5
19	0xd9	-39
20	0x07	7
21	0x04	4
22	0x14	20
23	0xc4	-60
24	0x0c	12
25	0x32	50
26	0x05	5
27	0xe6	-26
28	0x11	17
29	0x07	7
30	0x0f	15
31	0xf0	-16
32	0x09	9
33	0xf8	-8
34	0xeb	-21
35	0xe1	-31
36	0x81	-127
37	0xf0	-16
38	0x24	36
39	0xe2	-30
40	0x1d	29
41	0xfb	-5
42	0xe2	-30
43	0x0c	12
44	0xf4	-12
45	0xd9	-39
46	0x38	56
47	0xe8	-24
48	0x4a	74
49	0xfd	-3
50	0x06	6
51	0xe6	-26
52	0xf1	-15
53	0x18	24
54	0x03	3
55	0xde	-34
56	0xe9	-23
57	0x24	36
58	0x20	32
59	0xfa	-6
60	0x05	5
61	0x14	20
62	0x28	40
63	0x15	21
64	0xf0	-16
65	0xf8	-8
66	0xda	-38
67	0xea	-22
68	0xa8	-88
69	0x20	32
70	0x13	19
71	0xf9	-7
72	0x02	2
73	0xe8	-24
74	0x01	1
75	0x1c	28
76	0xdd	-35
77	0x06	6
78	0x1f	31
79	0xed	-19
80	0xf5	-11
81	0x09	9
82	0x0c	12
83	0x06	6
84	0x08	8
85	0xf8	-8
86	0xe4	-28
87	0xe6	-26
88	0x04	4
89	0x42	66
90	0xec	-20
91	0x05	5
92	0x23	35
93	0xd7	-41
94	0x07	7
95	0x0b	11
96	0xf7	-9
97	0xe8	-24
98	0x02	2
99	0xe7	-25
100	0x08	8
101	0x1a	26
102	0x19	25
103	0xf4	-12
104	0xfa	-6
105	0xf6	-10
106	0xe6	-26
107	0x11	17
108	0x10	16
109	0x32	50
110	0xe5	-27
111	0xeb	-21
112	0x0f	15
113	0xf4	-12
114	0x16	22
115	0x12	18
116	0xe8	-24
117	0x07	7
118	0xfe	-2
119	0x14	20
120	0x08	8
121	0x23	35
122	0x1a	26
123	0x0b	11
124	0xe4	-28
125	0x11	17
126	0xf0	-16
127	0xee	-18
128	0x08	8
129	0x09	9
130	0x06	6
131	0xe7	-25
132	0xf5	-11
133	0x0c	12
134	0x38	56
135	0x1c	28
136	0x08	8
137	0xc8	-56
138	0xd4	-44
139	0x19	25
140	0x1e	30
141	0x2a	42
142	0x03	3
143	0xfd	-3
144	0xe9	-23
145	0xae	-82
146	0x12	18
147	0xcd	-51
148	0xce	-50
149	0xe8	-24
150	0xdb	-37
151	0x19	25
152	0xef	-17
153	0x05	5
154	0xfd	-3
155	0x01	1
156	0x09	9
157	0xe4	-28
158	0xd6	-42
159	0x05	5
160	0x03	3
161	0xff	-1
162	0x00	0
163	0xf7	-9
164	0x22	34
165	0x09	9
166	0x0e	14
167	0x22	34
168	0xf1	-15
169	0xe1	-31
170	0xf8	-8
171	0xf0	-16
172	0xf2	-14
173	0x10	16
174	0x0b	11
175	0x25	37
176	0x1c	28
177	0xbd	-67
178	0x25	37
179	0xd3	-45
180	0xd9	-39
181	0x08	8
182	0xef	-17
183	0xfd	-3
184	0xc8	-56
185	0xb4	-76
186	0xee	-18
187	0xf9	-7
188	0x11	17
189	0x04	4
190	0xb7	-73
191	0x21	33
192	0xef	-17
193	0xf4	-12
194	0x15	21
195	0xe9	-23
196	0xf1	-15
197	0x0a	10
198	0xf7	-9
199	0x0e	14
200	0xe6	-26
201	0x0c	12
202	0x05	5
203	0xe1	-31
204	0x1d	29
205	0xf9	-7
206	0x1f	31
207	0xe9	-23
208	0xe2	-30
209	0xe3	-29
210	0x0b	11
211	0x37	55
212	0x11	17
213	0x01	1
214	0x1c	28
215	0xe3	-29
216	0x09	9
217	0x01	1
218	0x16	22
219	0x09	9
220	0xe6	-26
221	0xfc	-4
222	0xb7	-73
223	0xfb	-5
224	0x1d	29
225	0xde	-34
226	0xe6	-26
227	0xf5	-11
228	0xfe	-2
229	0xd1	-47
230	0xed	-19
231	0xf1	-15
232	0xdc	-36
233	0xe5	-27
234	0xf9	-7
235	0xe3	-29
236	0xdc	-36
237	0xe6	-26
238	0x93	-109
239	0xf3	-13
240	0xd8	-40
241	0x10	16
242	0xb4	-76
243	0xf9	-7
244	0xf5	-11
245	0xf6	-10
246	0x09	9
247	0xc3	-61
248	0x3a	58
249	0xee	-18
250	0x05	5
251	0xf9	-7
252	0x16	22
253	0xf4	-12
254	0xe2	-30
255	0xf6	-10

tfl.pseudo_qconst2 i1 [32, 5, 5, 32]
0	0x04	4
1	0xed	-19
2	0xdd	-35
3	0x1b	27
4	0xe9	-23
5	0x02	2
6	0xf5	-11
7	0x30	48
8	0x05	5
9	0x12	18
10	0x0b	11
11	0xe4	-28
12	0x44	68
13	0x06	6
14	0xf9	-7
15	0xf3	-13
16	0x17	23
17	0xe4	-28
18	0xf7	-9
19	0xfa	-6
20	0xb7	-73
21	0xc3	-61
22	0x08	8
23	0x10	16
24	0x00	0
25	0xfe	-2
26	0x0e	14
27	0x02	2
28	0x03	3
29	0x12	18
30	0x05	5
31	0xfa	-6
32	0x12	18
33	0xd1	-47
34	0xf2	-14
35	0xf9	-7
36	0x07	7
37	0xd2	-46
38	0x0c	12
39	0xf3	-13
40	0xfe	-2
41	0x0e	14
42	0x15	21
43	0xec	-20
44	0x01	1
45	0x0e	14
46	0x0c	12
47	0xea	-22
48	0xe7	-25
49	0xff	-1
50	0x09	9
51	0x04	4
52	0xba	-70
53	0xe6	-26
54	0xfd	-3
55	0xe8	-24
56	0xea	-22
57	0x03	3
58	0xe5	-27
59	0xf9	-7
60	0xea	-22
61	0xf6	-10
62	0x0d	13
63	0x12	18
64	0xef	-17
65	0xed	-19
66	0x0e	14
67	0xae	-82
68	0xef	-17
69	0xe7	-25
70	0xf4	-12
71	0xe6	-26
72	0xd0	-48
73	0x0a	10
74	0xf5	-11
75	0x01	1
76	0x0d	13
77	0x10	16
78	0xe9	-23
79	0xdf	-33
80	0xf4	-12
81	0x0b	11
82	0x19	25
83	0x06	6
84	0x12	18
85	0xbc	-68
86	0x09	9
87	0xe9	-23
88	0x0e	14
89	0xf0	-16
90	0xe8	-24
91	0x09	9
92	0xed	-19
93	0x04	4
94	0xe9	-23
95	0x02	2
96	0xfe	-2
97	0x0f	15
98	0x0f	15
99	0x98	-104
100	0x12	18
101	0xbe	-66
102	0x03	3
103	0x0f	15
104	0xf8	-8
105	0xfe	-2
106	0xf9	-7
107	0xee	-18
108	0x20	32
109	0xeb	-21
110	0x15	21
111	0xda	-38
112	0x0e	14
113	0x11	17
114	0xf8	-8
115	0xfd	-3
116	0x21	33
117	0xba	-70
118	0xfd	-3
119	0xe5	-27
120	0xf9	-7
121	0xe2	-30
122	0x0c	12
123	0x1d	29
124	0xfe	-2
125	0x11	17
126	0xf1	-15
127	0xfb	-5
128	0xf1	-15
129	0xfa	-6
130	0xf3	-13
131	0xec	-20
132	0x14	20
133	0xe9	-23
134	0xe9	-23
135	0x12	18
136	0xef	-17
137	0x0f	15
138	0xf4	-12
139	0x0e	14
140	0xf9	-7
141	0xf1	-15
142	0xf0	-16
143	0xdd	-35
144	0xfa	-6
145	0x08	8
146	0xf7	-9
147	0xf6	-10
148	0x1d	29
149	0x8f	-113
150	0x0d	13
151	0xf6	-10
152	0x00	0
153	0xfb	-5
154	0xf0	-16
155	0xf0	-16
156	0xfa	-6
157	0xf0	-16
158	0xfc	-4
159	0x04	4
160	0xf4	-12
161	0xbc	-68
162	0xdf	-33
163	0x14	20
164	0x11	17
165	0xf9	-7
166	0x03	3
167	0x1e	30
168	0xe1	-31
169	0x06	6
170	0x17	23
171	0x10	16
172	0xf6	-10
173	0xf3	-13
174	0x0b	11
175	0xec	-20
176	0x10	16
177	0xfa	-6
178	0x0b	11
179	0x11	17
180	0xdd	-35
181	0xf4	-12
182	0x03	3
183	0xff	-1
184	0x07	7
185	0xe4	-28
186	0x0a	10
187	0xef	-17
188	0xe8	-24
189	0xe7	-25
190	0xf9	-7
191	0xee	-18
192	0xf0	-16
193	0xd3	-45
194	0xec	-20
195	0x07	7
196	0x09	9
197	0xdb	-37
198	0xef	-17
199	0xd9	-39
200	0x81	-127
201	0xf2	-14
202	0xec	-20
203	0x06	6
204	0xe2	-30
205	0x07	7
206	0x0c	12
207	0xf7	-9
208	0xe3	-29
209	0xeb	-21
210	0xe8	-24
211	0x11	17
212	0xde	-34
213	0xfb	-5
214	0xfd	-3
215	0xf5	-11
216	0xe5	-27
217	0xfa	-6
218	0x00	0
219	0x0a	10
220	0x08	8
221	0xea	-22
222	0xec	-20
223	0x15	21
224	0xfd	-3
225	0xf4	-12
226	0xfd	-3
227	0xb7	-73
228	0xee	-18
229	0xdc	-36
230	0xe9	-23
231	0x02	2
232	0xe5	-27
233	0x02	2
234	0x14	20
235	0x03	3
236	0xd8	-40
237	0xf8	-8
238	0x11	17
239	0xfc	-4
240	0x08	8
241	0xee	-18
242	0xf8	-8
243	0x0f	15
244	0xe6	-26
245	0xd9	-39
246	0x0b	11
247	0x09	9
248	0x17	23
249	0xee	-18
250	0xf6	-10
251	0x09	9
252	0x15	21
253	0x16	22
254	0x19	25
255	0xf2	-14

tfl.pseudo_qconst3 i1 [43, 256]
0	0x05	5
1	0xe2	-30
2	0xec	-20
3	0xe0	-32
4	0xc7	-57
5	0xde	-34
6	0xc2	-62
7	0xfe	-2
8	0xe8	-24
9	0xae	-82
10	0x09	9
11	0xe3	-29
12	0xeb	-21
13	0xfc	-4
14	0x07	7
15	0x08	8
16	0x0c	12
17	0xcc	-52
18	0x09	9
19	0x04	4
20	0xfd	-3
21	0x0c	12
22	0xef	-17
23	0x03	3
24	0x04	4
25	0xde	-34
26	0xfd	-3
27	0xfd	-3
28	0xe5	-27
29	0x03	3
30	0xe9	-23
31	0x13	19
32	0x10	16
33	0xfb	-5
34	0xd0	-48
35	0x00	0
36	0xd6	-42
37	0xd5	-43
38	0x02	2
39	0xf4	-12
40	0xa7	-89
41	0xcf	-49
42	0xf2	-14
43	0xc6	-58
44	0x0d	13
45	0xf1	-15
46	0xe8	-24
47	0xd7	-41
48	0x02	2
49	0xea	-22
50	0xd8	-40
51	0xe8	-24
52	0xe3	-29
53	0x05	5
54	0xcd	-51
55	0xfa	-6
56	0x03	3
57	0xe6	-26
58	0xc4	-60
59	0xbc	-68
60	0xca	-54
61	0xe8	-24
62	0xdc	-36
63	0x04	4
64	0xf3	-13
65	0x04	4
66	0xf8	-8
67	0xc8	-56
68	0xf5	-11
69	0xd6	-42
70	0xc6	-58
71	0x01	1
72	0xf7	-9
73	0x01	1
74	0xb6	-74
75	0xd9	-39
76	0xe6	-26
77	0xf0	-16
78	0xe9	-23
79	0xee	-18
80	0xa0	-96
81	0xd8	-40
82	0xf0	-16
83	0xe5	-27
84	0xe4	-28
85	0x18	24
86	0x0b	11
87	0xf8	-8
88	0x10	16
89	0xa2	-94
90	0x9f	-97
91	0xca	-54
92	0xee	-18
93	0xaf	-81
94	0x05	5
95	0x1b	27
96	0xb4	-76
97	0xbd	-67
98	0xe7	-25
99	0x12	18
100	0x07	7
101	0xfd	-3
102	0xe7	-25
103	0x03	3
104	0xff	-1
105	0xe8	-24
106	0x0e	14
107	0xd9	-39
108	0x10	16
109	0xcf	-49
110	0xb8	-72
111	0xc8	-56
112	0xfe	-2
113	0xd2	-46
114	0xe0	-32
115	0xf9	-7
116	0x08	8
117	0xe8	-24
118	0xec	-20
119	0xfc	-4
120	0xe1	-31
121	0xc9	-55
122	0xe8	-24
123	0xee	-18
124	0xf7	-9
125	0xd8	-40
126	0xe6	-26
127	0xf1	-15
128	0x0d	13
129	0xf6	-10
130	0x04	4
131	0xf8	-8
132	0xd5	-43
133	0xa3	-93
134	0xfa	-6
135	0x00	0
136	0xb3	-77
137	0xfe	-2
138	0xe8	-24
139	0x0e	14
140	0xd4	-44
141	0xac	-84
142	0xf1	-15
143	0xc0	-64
144	0x0e	14
145	0xf3	-13
146	0xf6	-10
147	0xec	-20
148	0xb1	-79
149	0xb9	-71
150	0xe8	-24
151	0xdf	-33
152	0xf0	-16
153	0xe6	-26
154	0xf1	-15
155	0xe9	-23
156	0xbf	-65
157	0x11	17
158	0x00	0
159	0x15	21
160	0x06	6
161	0xac	-84
162	0xe1	-31
163	0x07	7
164	0xe6	-26
165	0xde	-34
166	0xd2	-46
167	0xf8	-8
168	0x16	22
169	0xfa	-6
170	0x08	8
171	0xb5	-75
172	0xeb	-21
173	0xf6	-10
174	0xd6	-42
175	0xe3	-29
176	0xf6	-10
177	0xbb	-69
178	0xbb	-69
179	0x01	1
180	0xfd	-3
181	0x0a	10
182	0xe8	-24
183	0xc7	-57
184	0xe1	-31
185	0x0e	14
186	0xdc	-36
187	0xfa	-6
188	0xfb	-5
189	0xe2	-30
190	0xc4	-60
191	0xb4	-76
192	0xf0	-16
193	0xf7	-9
194	0x01	1
195	0x85	-123
196	0xf6	-10
197	0xf6	-10
198	0xf3	-13
199	0xda	-38
200	0x09	9
201	0xdd	-35
202	0xf1	-15
203	0xb9	-71
204	0xe5	-27
205	0x02	2
206	0xe0	-32
207	0x1b	27
208	0x05	5
209	0xf3	-13
210	0xd4	-44
211	0xde	-34
212	0x04	4
213	0xea	-22
214	0xea	-22
215	0x16	22
216	0xf9	-7
217	0xca	-54
218	0xba	-70
219	0xcc	-52
220	0xfb	-5
221	0xe3	-29
222	0xd5	-43
223	0xe0	-32
224	0xfb	-5
225	0x02	2
226	0xfb	-5
227	0xe4	-28
228	0x86	-122
229	0xfd	-3
230	0x08	8
231	0x0c	12
232	0x0e	14
233	0xe4	-28
234	0xcb	-53
235	0x16	22
236	0xb9	-71
237	0xf8	-8
238	0x18	24
239	0x07	7
240	0xed	-19
241	0x18	24
242	0x09	9
243	0xd0	-48
244	0xeb	-21
245	0xef	-17
246	0xf6	-10
247	0xda	-38
248	0xd7	-41
249	0x01	1
250	0xf4	-12
251	0x81	-127
252	0xd7	-41
253	0x05	5
254	0xce	-50
255	0xe6	-26

tfl.pseudo_qconst4 i1 [256, 64]
0	0x1e	30
1	0xd6	-42
2	0xaf	-81
3	0xce	-50
4	0xe2	-30
5	0x16	22
6	0xfc	-4
7	0xe6	-26
8	0xc5	-59
9	0xf7	-9
10	0xaa	-86
11	0xfd	-3
12	0xf8	-8
13	0x19	25
14	0x08	8
15	0x0e	14
16	0xdc	-36
17	0xb2	-78
18	0x27	39
19	0xfa	-6
20	0xd7	-41
21	0x08	8
22	0xfd	-3
23	0xca	-54
24	0x1d	29
25	0xe7	-25
26	0xbc	-68
27	0xb4	-76
28	0xfb	-5
29	0x17	23
30	0x11	17
31	0xd9	-39
32	0x9b	-101
33	0xe9	-23
34	0xea	-22
35	0x02	2
36	0xd6	-42
37	0xd7	-41
38	0x38	56
39	0xcd	-51
40	0xf1	-15
41	0x94	-108
42	0xd9	-39
43	0xcc	-52
44	0x21	33
45	0x81	-127
46	0xc5	-59
47	0xa2	-94
48	0x91	-111
49	0xda	-38
50	0xfd	-3
51	0x18	24
52	0xe2	-30
53	0xb5	-75
54	0xdf	-33
55	0x0d	13
56	0xef	-17
57	0xc1	-63
58	0xa1	-95
59	0xc3	-61
60	0xbc	-68
61	0xf7	-9
62	0xf5	-11
63	0xb6	-74
64	0xe6	-26
65	0xf0	-16
66	0x12	18
67	0xee	-18
68	0xca	-54
69	0x09	9
70	0x04	4
71	0xc5	-59
72	0x81	-127
73	0xd1	-47
74	0x1e	30
75	0xcc	-52
76	0x0f	15
77	0xe7	-25
78	0x0b	11
79	0xfe	-2
80	0xae	-82
81	0xf2	-14
82	0xf7	-9
83	0xf5	-11
84	0xc1	-63
85	0xff	-1
86	0xf7	-9
87	0xab	-85
88	0x1d	29
89	0xe5	-27
90	0xda	-38
91	0xb3	-77
92	0x1d	29
93	0xdc	-36
94	0xe7	-25
95	0x35	53
96	0xa6	-90
97	0x15	21
98	0x17	23
99	0x15	21
100	0x17	23
101	0xe0	-32
102	0x03	3
103	0x17	23
104	0x15	21
105	0x17	23
106	0xad	-83
107	0xb7	-73
108	0xda	-38
109	0xf8	-8
110	0xf8	-8
111	0x25	37
112	0xf6	-10
113	0xaf	-81
114	0xfc	-4
115	0xd6	-42
116	0xf3	-13
117	0xbb	-69
118	0xfb	-5
119	0x0a	10
120	0xef	-17
121	0xf8	-8
122	0x19	25
123	0x19	25
124	0xd9	-39
125	0xfc	-4
126	0xf9	-7
127	0xde	-34
128	0xcf	-49
129	0x16	22
130	0xe7	-25
131	0xf0	-16
132	0x81	-127
133	0xdf	-33
134	0xbd	-67
135	0x0a	10
136	0xdb	-37
137	0xfb	-5
138	0xd2	-46
139	0x1f	31
140	0xcc	-52
141	0xbe	-66
142	0xe9	-23
143	0x01	1
144	0x38	56
145	0x15	21
146	0xd3	-45
147	0xa2	-94
148	0xc3	-61
149	0xcc	-52
150	0x0a	10
151	0xd3	-45
152	0xd3	-45
153	0xe6	-26
154	0xed	-19
155	0xf6	-10
156	0x30	48
157	0xab	-85
158	0x02	2
159	0xd9	-39
160	0x1f	31
161	0xe0	-32
162	0x10	16
163	0xca	-54
164	0x14	20
165	0xf5	-11
166	0xdf	-33
167	0xf9	-7
168	0x3f	63
169	0xfa	-6
170	0x12	18
171	0xf4	-12
172	0x86	-122
173	0x15	21
174	0x00	0
175	0xca	-54
176	0xdf	-33
177	0xe3	-29
178	0x0e	14
179	0x48	72
180	0x1e	30
181	0x1a	26
182	0x9e	-98
183	0xe0	-32
184	0xe6	-26
185	0x01	1
186	0x17	23
187	0xc5	-59
188	0xd4	-44
189	0xc8	-56
190	0xda	-38
191	0xe4	-28
192	0xe2	-30
193	0xee	-18
194	0x06	6
195	0x00	0
196	0x14	20
197	0x01	1
198	0xc5	-59
199	0xff	-1
200	0xdc	-36
201	0x0b	11
202	0x2e	46
203	0xf2	-14
204	0x20	32
205	0xf8	-8
206	0xb1	-79
207	0x00	0
208	0xee	-18
209	0x0b	11
210	0x2c	44
211	0x0b	11
212	0xeb	-21
213	0xc1	-63
214	0xf9	-7
215	0x34	52
216	0xb5	-75
217	0xc6	-58
218	0xd3	-45
219	0x10	16
220	0xd2	-46
221	0x00	0
222	0xda	-38
223	0xf3	-13
224	0x0b	11
225	0x88	-120
226	0xc3	-61
227	0xfe	-2
228	0xea	-22
229	0x43	67
230	0x9d	-99
231	0xda	-38
232	0x08	8
233	0xd2	-46
234	0x2c	44
235	0xbc	-68
236	0xef	-17
237	0xf7	-9
238	0xd4	-44
239	0xa6	-90
240	0x04	4
241	0x01	1
242	0xf7	-9
243	0x81	-127
244	0xd3	-45
245	0xee	-18
246	0xe7	-25
247	0xb7	-73
248	0xbf	-65
249	0xf9	-7
250	0xfc	-4
251	0xf4	-12
252	0xa3	-93
253	0xfe	-2
254	0x14	20
255	0x19	25

sequential_1/conv2d_1/convolution i1 [32, 5, 5, 3]
0	0x18	24
1	0xcc	-52
2	0xfc	-4
3	0xda	-38
4	0x07	7
5	0x1c	28
6	0xce	-50
7	0x09	9
8	0x31	49
9	0xdd	-35
10	0x02	2
11	0x05	5
12	0xd3	-45
13	0xfc	-4
14	0xb9	-71
15	0xfc	-4
16	0x96	-106
17	0x8e	-114
18	0xb5	-75
19	0x91	-111
20	0xf8	-8
21	0xb0	-80
22	0xb3	-77
23	0x2a	42
24	0xa6	-90
25	0x34	52
26	0x08	8
27	0x24	36
28	0xdf	-33
29	0xab	-85
30	0xa4	-92
31	0xea	-22
32	0x3e	62
33	0xf8	-8
34	0xeb	-21
35	0x42	66
36	0x21	33
37	0x9d	-99
38	0xe8	-24
39	0x04	4
40	0x99	-103
41	0xc2	-62
42	0x81	-127
43	0x96	-106
44	0xfa	-6
45	0x38	56
46	0xf0	-16
47	0x2d	45
48	0x3b	59
49	0xe9	-23
50	0x0c	12
51	0x13	19
52	0xf9	-7
53	0x01	1
54	0x0c	12
55	0x3c	60
56	0x84	-124
57	0xed	-19
58	0xe9	-23
59	0xda	-38
60	0xe6	-26
61	0xe5	-27
62	0xda	-38
63	0x38	56
64	0x21	33
65	0xa9	-87
66	0x3e	62
67	0xd6	-42
68	0xd7	-41
69	0xd9	-39
70	0xdd	-35
71	0xdb	-37
72	0xf3	-13
73	0x9a	-102
74	0xe4	-28
75	0xec	-20
76	0x35	53
77	0x55	85
78	0x11	17
79	0x60	96
80	0x59	89
81	0xf5	-11
82	0x1b	27
83	0x5b	91
84	0xec	-20
85	0xc4	-60
86	0x01	1
87	0x9f	-97
88	0xbb	-69
89	0xc2	-62
90	0x45	69
91	0x57	87
92	0x1f	31
93	0x56	86
94	0x75	117
95	0x6b	107
96	0x17	23
97	0xf3	-13
98	0x27	39
99	0xd2	-46
100	0x9a	-102
101	0xa3	-93
102	0xbb	-69
103	0x8c	-116
104	0xbd	-67
105	0x1c	28
106	0x05	5
107	0x0d	13
108	0x3e	62
109	0x37	55
110	0x4a	74
111	0x30	48
112	0xe6	-26
113	0x15	21
114	0xfa	-6
115	0xd2	-46
116	0xe6	-26
117	0xca	-54
118	0x9a	-102
119	0xad	-83
120	0xd6	-42
121	0xf4	-12
122	0xdb	-37
123	0x23	35
124	0x0a	10
125	0xb8	-72
126	0x21	33
127	0xb8	-72
128	0xd0	-48
129	0x13	19
130	0x81	-127
131	0xbf	-65
132	0xfe	-2
133	0xab	-85
134	0xf2	-14
135	0x1b	27
136	0xde	-34
137	0xff	-1
138	0xf5	-11
139	0xed	-19
140	0xf5	-11
141	0xcb	-53
142	0xb8	-72
143	0x8c	-116
144	0xea	-22
145	0x97	-105
146	0x98	-104
147	0x08	8
148	0xb5	-75
149	0xab	-85
150	0xe3	-29
151	0xec	-20
152	0x05	5
153	0xf1	-15
154	0x9b	-101
155	0x81	-127
156	0xd5	-43
157	0xe4	-28
158	0xbd	-67
159	0xfd	-3
160	0xe6	-26
161	0xda	-38
162	0xe8	-24
163	0xb2	-78
164	0xe8	-24
165	0x0a	10
166	0x12	18
167	0x00	0
168	0xce	-50
169	0xdc	-36
170	0xae	-82
171	0x02	2
172	0xe8	-24
173	0xb2	-78
174	0x93	-109
175	0xa6	-90
176	0xad	-83
177	0xcf	-49
178	0xe5	-27
179	0xc9	-55
180	0x2a	42
181	0x36	54
182	0x4a	74
183	0x1f	31
184	0x21	33
185	0x1a	26
186	0x18	24
187	0x15	21
188	0x17	23
189	0xce	-50
190	0xe9	-23
191	0x2f	47
192	0xbc	-68
193	0xb1	-79
194	0xe7	-25
195	0x1b	27
196	0x33	51
197	0xf1	-15
198	0xde	-34
199	0xbc	-68
200	0xc5	-59
201	0x11	17
202	0xdd	-35
203	0x17	23
204	0x1e	30
205	0x24	36
206	0x30	48
207	0xae	-82
208	0x8e	-114
209	0xef	-17
210	0x0c	12
211	0x15	21
212	0xe6	-26
213	0xd2	-46
214	0x98	-104
215	0xb1	-79
216	0xaa	-86
217	0xd0	-48
218	0xd7	-41
219	0xf2	-14
220	0xe1	-31
221	0xf2	-14
222	0x8a	-118
223	0xe8	-24
224	0xc8	-56
225	0x12	18
226	0x1f	31
227	0x0f	15
228	0xd4	-44
229	0xdf	-33
230	0xef	-17
231	0xd5	-43
232	0xf1	-15
233	0xb5	-75
234	0x05	5
235	0xe4	-28
236	0xf7	-9
237	0x53	83
238	0xf7	-9
239	0xce	-50
240	0x10	16
241	0x13	19
242	0x41	65
243	0x16	22
244	0x37	55
245	0x49	73
246	0x01	1
247	0x2b	43
248	0x4f	79
249	0x07	7
250	0x42	66
251	0x2d	45
252	0xf7	-9
253	0x0a	10
254	0xf4	-12
255	0x98	-104
